<?xml version="1.0"?>
<net name="PaddlePaddle Graph in PIR mode" version="11">
	<layers>
		<layer id="0" name="x" type="Parameter" version="opset1">
			<data shape="?,3,?,?" element_type="f32" />
			<output>
				<port id="0" precision="FP32" names="x">
					<dim>-1</dim>
					<dim>3</dim>
					<dim>-1</dim>
					<dim>-1</dim>
				</port>
			</output>
		</layer>
		<layer id="1" name="Multiply_7510_compressed" type="Const" version="opset1">
			<data element_type="f16" shape="8, 3, 3, 3" offset="0" size="432" />
			<output>
				<port id="0" precision="FP16">
					<dim>8</dim>
					<dim>3</dim>
					<dim>3</dim>
					<dim>3</dim>
				</port>
			</output>
		</layer>
		<layer id="2" name="Multiply_7510" type="Convert" version="opset1">
			<data destination_type="f32" />
			<rt_info>
				<attribute name="decompression" version="0" />
			</rt_info>
			<input>
				<port id="0" precision="FP16">
					<dim>8</dim>
					<dim>3</dim>
					<dim>3</dim>
					<dim>3</dim>
				</port>
			</input>
			<output>
				<port id="1" precision="FP32">
					<dim>8</dim>
					<dim>3</dim>
					<dim>3</dim>
					<dim>3</dim>
				</port>
			</output>
		</layer>
		<layer id="3" name="Multiply_7162" type="Convolution" version="opset1">
			<data strides="2, 2" dilations="1, 1" pads_begin="1, 1" pads_end="1, 1" auto_pad="explicit" />
			<input>
				<port id="0" precision="FP32">
					<dim>-1</dim>
					<dim>3</dim>
					<dim>-1</dim>
					<dim>-1</dim>
				</port>
				<port id="1" precision="FP32">
					<dim>8</dim>
					<dim>3</dim>
					<dim>3</dim>
					<dim>3</dim>
				</port>
			</input>
			<output>
				<port id="2" precision="FP32">
					<dim>-1</dim>
					<dim>8</dim>
					<dim>-1</dim>
					<dim>-1</dim>
				</port>
			</output>
		</layer>
		<layer id="4" name="Constant_7167_compressed" type="Const" version="opset1">
			<data element_type="f16" shape="1, 8, 1, 1" offset="432" size="16" />
			<output>
				<port id="0" precision="FP16">
					<dim>1</dim>
					<dim>8</dim>
					<dim>1</dim>
					<dim>1</dim>
				</port>
			</output>
		</layer>
		<layer id="5" name="Constant_7167" type="Convert" version="opset1">
			<data destination_type="f32" />
			<rt_info>
				<attribute name="decompression" version="0" />
			</rt_info>
			<input>
				<port id="0" precision="FP16">
					<dim>1</dim>
					<dim>8</dim>
					<dim>1</dim>
					<dim>1</dim>
				</port>
			</input>
			<output>
				<port id="1" precision="FP32">
					<dim>1</dim>
					<dim>8</dim>
					<dim>1</dim>
					<dim>1</dim>
				</port>
			</output>
		</layer>
		<layer id="6" name="BatchNormalization.0" type="Add" version="opset1">
			<data auto_broadcast="numpy" />
			<input>
				<port id="0" precision="FP32">
					<dim>-1</dim>
					<dim>8</dim>
					<dim>-1</dim>
					<dim>-1</dim>
				</port>
				<port id="1" precision="FP32">
					<dim>1</dim>
					<dim>8</dim>
					<dim>1</dim>
					<dim>1</dim>
				</port>
			</input>
			<output>
				<port id="2" precision="FP32" names="p2o.pd_op.batch_norm_.0.0">
					<dim>-1</dim>
					<dim>8</dim>
					<dim>-1</dim>
					<dim>-1</dim>
				</port>
			</output>
		</layer>
		<layer id="7" name="HardSwish.0" type="HSwish" version="opset4">
			<input>
				<port id="0" precision="FP32">
					<dim>-1</dim>
					<dim>8</dim>
					<dim>-1</dim>
					<dim>-1</dim>
				</port>
			</input>
			<output>
				<port id="1" precision="FP32" names="p2o.pd_op.hardswish.0.0">
					<dim>-1</dim>
					<dim>8</dim>
					<dim>-1</dim>
					<dim>-1</dim>
				</port>
			</output>
		</layer>
		<layer id="8" name="Multiply_7514_compressed" type="Const" version="opset1">
			<data element_type="f16" shape="8, 8, 1, 1" offset="448" size="128" />
			<output>
				<port id="0" precision="FP16">
					<dim>8</dim>
					<dim>8</dim>
					<dim>1</dim>
					<dim>1</dim>
				</port>
			</output>
		</layer>
		<layer id="9" name="Multiply_7514" type="Convert" version="opset1">
			<data destination_type="f32" />
			<rt_info>
				<attribute name="decompression" version="0" />
			</rt_info>
			<input>
				<port id="0" precision="FP16">
					<dim>8</dim>
					<dim>8</dim>
					<dim>1</dim>
					<dim>1</dim>
				</port>
			</input>
			<output>
				<port id="1" precision="FP32">
					<dim>8</dim>
					<dim>8</dim>
					<dim>1</dim>
					<dim>1</dim>
				</port>
			</output>
		</layer>
		<layer id="10" name="Multiply_7169" type="Convolution" version="opset1">
			<data strides="1, 1" dilations="1, 1" pads_begin="0, 0" pads_end="0, 0" auto_pad="explicit" />
			<input>
				<port id="0" precision="FP32">
					<dim>-1</dim>
					<dim>8</dim>
					<dim>-1</dim>
					<dim>-1</dim>
				</port>
				<port id="1" precision="FP32">
					<dim>8</dim>
					<dim>8</dim>
					<dim>1</dim>
					<dim>1</dim>
				</port>
			</input>
			<output>
				<port id="2" precision="FP32">
					<dim>-1</dim>
					<dim>8</dim>
					<dim>-1</dim>
					<dim>-1</dim>
				</port>
			</output>
		</layer>
		<layer id="11" name="Constant_7174_compressed" type="Const" version="opset1">
			<data element_type="f16" shape="1, 8, 1, 1" offset="576" size="16" />
			<output>
				<port id="0" precision="FP16">
					<dim>1</dim>
					<dim>8</dim>
					<dim>1</dim>
					<dim>1</dim>
				</port>
			</output>
		</layer>
		<layer id="12" name="Constant_7174" type="Convert" version="opset1">
			<data destination_type="f32" />
			<rt_info>
				<attribute name="decompression" version="0" />
			</rt_info>
			<input>
				<port id="0" precision="FP16">
					<dim>1</dim>
					<dim>8</dim>
					<dim>1</dim>
					<dim>1</dim>
				</port>
			</input>
			<output>
				<port id="1" precision="FP32">
					<dim>1</dim>
					<dim>8</dim>
					<dim>1</dim>
					<dim>1</dim>
				</port>
			</output>
		</layer>
		<layer id="13" name="BatchNormalization.1" type="Add" version="opset1">
			<data auto_broadcast="numpy" />
			<input>
				<port id="0" precision="FP32">
					<dim>-1</dim>
					<dim>8</dim>
					<dim>-1</dim>
					<dim>-1</dim>
				</port>
				<port id="1" precision="FP32">
					<dim>1</dim>
					<dim>8</dim>
					<dim>1</dim>
					<dim>1</dim>
				</port>
			</input>
			<output>
				<port id="2" precision="FP32" names="p2o.pd_op.batch_norm_.1.0">
					<dim>-1</dim>
					<dim>8</dim>
					<dim>-1</dim>
					<dim>-1</dim>
				</port>
			</output>
		</layer>
		<layer id="14" name="Relu.0" type="ReLU" version="opset1">
			<input>
				<port id="0" precision="FP32">
					<dim>-1</dim>
					<dim>8</dim>
					<dim>-1</dim>
					<dim>-1</dim>
				</port>
			</input>
			<output>
				<port id="1" precision="FP32" names="p2o.pd_op.relu.0.0">
					<dim>-1</dim>
					<dim>8</dim>
					<dim>-1</dim>
					<dim>-1</dim>
				</port>
			</output>
		</layer>
		<layer id="15" name="Multiply_7518_compressed" type="Const" version="opset1">
			<data element_type="f16" shape="8, 1, 1, 3, 3" offset="592" size="144" />
			<output>
				<port id="0" precision="FP16">
					<dim>8</dim>
					<dim>1</dim>
					<dim>1</dim>
					<dim>3</dim>
					<dim>3</dim>
				</port>
			</output>
		</layer>
		<layer id="16" name="Multiply_7518" type="Convert" version="opset1">
			<data destination_type="f32" />
			<rt_info>
				<attribute name="decompression" version="0" />
			</rt_info>
			<input>
				<port id="0" precision="FP16">
					<dim>8</dim>
					<dim>1</dim>
					<dim>1</dim>
					<dim>3</dim>
					<dim>3</dim>
				</port>
			</input>
			<output>
				<port id="1" precision="FP32">
					<dim>8</dim>
					<dim>1</dim>
					<dim>1</dim>
					<dim>3</dim>
					<dim>3</dim>
				</port>
			</output>
		</layer>
		<layer id="17" name="Multiply_7176" type="GroupConvolution" version="opset1">
			<data strides="1, 1" pads_begin="1, 1" pads_end="1, 1" dilations="1, 1" auto_pad="explicit" />
			<input>
				<port id="0" precision="FP32">
					<dim>-1</dim>
					<dim>8</dim>
					<dim>-1</dim>
					<dim>-1</dim>
				</port>
				<port id="1" precision="FP32">
					<dim>8</dim>
					<dim>1</dim>
					<dim>1</dim>
					<dim>3</dim>
					<dim>3</dim>
				</port>
			</input>
			<output>
				<port id="2" precision="FP32" names="p2o.pd_op.depthwise_conv2d.0.0">
					<dim>-1</dim>
					<dim>8</dim>
					<dim>-1</dim>
					<dim>-1</dim>
				</port>
			</output>
		</layer>
		<layer id="18" name="Constant_7181_compressed" type="Const" version="opset1">
			<data element_type="f16" shape="1, 8, 1, 1" offset="736" size="16" />
			<output>
				<port id="0" precision="FP16">
					<dim>1</dim>
					<dim>8</dim>
					<dim>1</dim>
					<dim>1</dim>
				</port>
			</output>
		</layer>
		<layer id="19" name="Constant_7181" type="Convert" version="opset1">
			<data destination_type="f32" />
			<rt_info>
				<attribute name="decompression" version="0" />
			</rt_info>
			<input>
				<port id="0" precision="FP16">
					<dim>1</dim>
					<dim>8</dim>
					<dim>1</dim>
					<dim>1</dim>
				</port>
			</input>
			<output>
				<port id="1" precision="FP32">
					<dim>1</dim>
					<dim>8</dim>
					<dim>1</dim>
					<dim>1</dim>
				</port>
			</output>
		</layer>
		<layer id="20" name="BatchNormalization.2" type="Add" version="opset1">
			<data auto_broadcast="numpy" />
			<input>
				<port id="0" precision="FP32">
					<dim>-1</dim>
					<dim>8</dim>
					<dim>-1</dim>
					<dim>-1</dim>
				</port>
				<port id="1" precision="FP32">
					<dim>1</dim>
					<dim>8</dim>
					<dim>1</dim>
					<dim>1</dim>
				</port>
			</input>
			<output>
				<port id="2" precision="FP32" names="p2o.pd_op.batch_norm_.2.0">
					<dim>-1</dim>
					<dim>8</dim>
					<dim>-1</dim>
					<dim>-1</dim>
				</port>
			</output>
		</layer>
		<layer id="21" name="Relu.1" type="ReLU" version="opset1">
			<input>
				<port id="0" precision="FP32">
					<dim>-1</dim>
					<dim>8</dim>
					<dim>-1</dim>
					<dim>-1</dim>
				</port>
			</input>
			<output>
				<port id="1" precision="FP32" names="p2o.pd_op.relu.1.0">
					<dim>-1</dim>
					<dim>8</dim>
					<dim>-1</dim>
					<dim>-1</dim>
				</port>
			</output>
		</layer>
		<layer id="22" name="Multiply_7521_compressed" type="Const" version="opset1">
			<data element_type="f16" shape="8, 8, 1, 1" offset="752" size="128" />
			<output>
				<port id="0" precision="FP16">
					<dim>8</dim>
					<dim>8</dim>
					<dim>1</dim>
					<dim>1</dim>
				</port>
			</output>
		</layer>
		<layer id="23" name="Multiply_7521" type="Convert" version="opset1">
			<data destination_type="f32" />
			<rt_info>
				<attribute name="decompression" version="0" />
			</rt_info>
			<input>
				<port id="0" precision="FP16">
					<dim>8</dim>
					<dim>8</dim>
					<dim>1</dim>
					<dim>1</dim>
				</port>
			</input>
			<output>
				<port id="1" precision="FP32">
					<dim>8</dim>
					<dim>8</dim>
					<dim>1</dim>
					<dim>1</dim>
				</port>
			</output>
		</layer>
		<layer id="24" name="Multiply_7183" type="Convolution" version="opset1">
			<data strides="1, 1" dilations="1, 1" pads_begin="0, 0" pads_end="0, 0" auto_pad="explicit" />
			<input>
				<port id="0" precision="FP32">
					<dim>-1</dim>
					<dim>8</dim>
					<dim>-1</dim>
					<dim>-1</dim>
				</port>
				<port id="1" precision="FP32">
					<dim>8</dim>
					<dim>8</dim>
					<dim>1</dim>
					<dim>1</dim>
				</port>
			</input>
			<output>
				<port id="2" precision="FP32">
					<dim>-1</dim>
					<dim>8</dim>
					<dim>-1</dim>
					<dim>-1</dim>
				</port>
			</output>
		</layer>
		<layer id="25" name="Constant_7188_compressed" type="Const" version="opset1">
			<data element_type="f16" shape="1, 8, 1, 1" offset="880" size="16" />
			<output>
				<port id="0" precision="FP16">
					<dim>1</dim>
					<dim>8</dim>
					<dim>1</dim>
					<dim>1</dim>
				</port>
			</output>
		</layer>
		<layer id="26" name="Constant_7188" type="Convert" version="opset1">
			<data destination_type="f32" />
			<rt_info>
				<attribute name="decompression" version="0" />
			</rt_info>
			<input>
				<port id="0" precision="FP16">
					<dim>1</dim>
					<dim>8</dim>
					<dim>1</dim>
					<dim>1</dim>
				</port>
			</input>
			<output>
				<port id="1" precision="FP32">
					<dim>1</dim>
					<dim>8</dim>
					<dim>1</dim>
					<dim>1</dim>
				</port>
			</output>
		</layer>
		<layer id="27" name="BatchNormalization.3" type="Add" version="opset1">
			<data auto_broadcast="numpy" />
			<input>
				<port id="0" precision="FP32">
					<dim>-1</dim>
					<dim>8</dim>
					<dim>-1</dim>
					<dim>-1</dim>
				</port>
				<port id="1" precision="FP32">
					<dim>1</dim>
					<dim>8</dim>
					<dim>1</dim>
					<dim>1</dim>
				</port>
			</input>
			<output>
				<port id="2" precision="FP32" names="p2o.pd_op.batch_norm_.3.0">
					<dim>-1</dim>
					<dim>8</dim>
					<dim>-1</dim>
					<dim>-1</dim>
				</port>
			</output>
		</layer>
		<layer id="28" name="Add.0" type="Add" version="opset1">
			<data auto_broadcast="numpy" />
			<input>
				<port id="0" precision="FP32">
					<dim>-1</dim>
					<dim>8</dim>
					<dim>-1</dim>
					<dim>-1</dim>
				</port>
				<port id="1" precision="FP32">
					<dim>-1</dim>
					<dim>8</dim>
					<dim>-1</dim>
					<dim>-1</dim>
				</port>
			</input>
			<output>
				<port id="2" precision="FP32" names="Add.1">
					<dim>-1</dim>
					<dim>8</dim>
					<dim>-1</dim>
					<dim>-1</dim>
				</port>
			</output>
		</layer>
		<layer id="29" name="Multiply_7525_compressed" type="Const" version="opset1">
			<data element_type="f16" shape="32, 8, 1, 1" offset="896" size="512" />
			<output>
				<port id="0" precision="FP16">
					<dim>32</dim>
					<dim>8</dim>
					<dim>1</dim>
					<dim>1</dim>
				</port>
			</output>
		</layer>
		<layer id="30" name="Multiply_7525" type="Convert" version="opset1">
			<data destination_type="f32" />
			<rt_info>
				<attribute name="decompression" version="0" />
			</rt_info>
			<input>
				<port id="0" precision="FP16">
					<dim>32</dim>
					<dim>8</dim>
					<dim>1</dim>
					<dim>1</dim>
				</port>
			</input>
			<output>
				<port id="1" precision="FP32">
					<dim>32</dim>
					<dim>8</dim>
					<dim>1</dim>
					<dim>1</dim>
				</port>
			</output>
		</layer>
		<layer id="31" name="Multiply_7190" type="Convolution" version="opset1">
			<data strides="1, 1" dilations="1, 1" pads_begin="0, 0" pads_end="0, 0" auto_pad="explicit" />
			<input>
				<port id="0" precision="FP32">
					<dim>-1</dim>
					<dim>8</dim>
					<dim>-1</dim>
					<dim>-1</dim>
				</port>
				<port id="1" precision="FP32">
					<dim>32</dim>
					<dim>8</dim>
					<dim>1</dim>
					<dim>1</dim>
				</port>
			</input>
			<output>
				<port id="2" precision="FP32">
					<dim>-1</dim>
					<dim>32</dim>
					<dim>-1</dim>
					<dim>-1</dim>
				</port>
			</output>
		</layer>
		<layer id="32" name="Constant_7195_compressed" type="Const" version="opset1">
			<data element_type="f16" shape="1, 32, 1, 1" offset="1408" size="64" />
			<output>
				<port id="0" precision="FP16">
					<dim>1</dim>
					<dim>32</dim>
					<dim>1</dim>
					<dim>1</dim>
				</port>
			</output>
		</layer>
		<layer id="33" name="Constant_7195" type="Convert" version="opset1">
			<data destination_type="f32" />
			<rt_info>
				<attribute name="decompression" version="0" />
			</rt_info>
			<input>
				<port id="0" precision="FP16">
					<dim>1</dim>
					<dim>32</dim>
					<dim>1</dim>
					<dim>1</dim>
				</port>
			</input>
			<output>
				<port id="1" precision="FP32">
					<dim>1</dim>
					<dim>32</dim>
					<dim>1</dim>
					<dim>1</dim>
				</port>
			</output>
		</layer>
		<layer id="34" name="BatchNormalization.4" type="Add" version="opset1">
			<data auto_broadcast="numpy" />
			<input>
				<port id="0" precision="FP32">
					<dim>-1</dim>
					<dim>32</dim>
					<dim>-1</dim>
					<dim>-1</dim>
				</port>
				<port id="1" precision="FP32">
					<dim>1</dim>
					<dim>32</dim>
					<dim>1</dim>
					<dim>1</dim>
				</port>
			</input>
			<output>
				<port id="2" precision="FP32" names="p2o.pd_op.batch_norm_.4.0">
					<dim>-1</dim>
					<dim>32</dim>
					<dim>-1</dim>
					<dim>-1</dim>
				</port>
			</output>
		</layer>
		<layer id="35" name="Relu.2" type="ReLU" version="opset1">
			<input>
				<port id="0" precision="FP32">
					<dim>-1</dim>
					<dim>32</dim>
					<dim>-1</dim>
					<dim>-1</dim>
				</port>
			</input>
			<output>
				<port id="1" precision="FP32" names="p2o.pd_op.relu.2.0">
					<dim>-1</dim>
					<dim>32</dim>
					<dim>-1</dim>
					<dim>-1</dim>
				</port>
			</output>
		</layer>
		<layer id="36" name="Multiply_7529_compressed" type="Const" version="opset1">
			<data element_type="f16" shape="32, 1, 1, 3, 3" offset="1472" size="576" />
			<output>
				<port id="0" precision="FP16">
					<dim>32</dim>
					<dim>1</dim>
					<dim>1</dim>
					<dim>3</dim>
					<dim>3</dim>
				</port>
			</output>
		</layer>
		<layer id="37" name="Multiply_7529" type="Convert" version="opset1">
			<data destination_type="f32" />
			<rt_info>
				<attribute name="decompression" version="0" />
			</rt_info>
			<input>
				<port id="0" precision="FP16">
					<dim>32</dim>
					<dim>1</dim>
					<dim>1</dim>
					<dim>3</dim>
					<dim>3</dim>
				</port>
			</input>
			<output>
				<port id="1" precision="FP32">
					<dim>32</dim>
					<dim>1</dim>
					<dim>1</dim>
					<dim>3</dim>
					<dim>3</dim>
				</port>
			</output>
		</layer>
		<layer id="38" name="Multiply_7197" type="GroupConvolution" version="opset1">
			<data strides="2, 2" pads_begin="1, 1" pads_end="1, 1" dilations="1, 1" auto_pad="explicit" />
			<input>
				<port id="0" precision="FP32">
					<dim>-1</dim>
					<dim>32</dim>
					<dim>-1</dim>
					<dim>-1</dim>
				</port>
				<port id="1" precision="FP32">
					<dim>32</dim>
					<dim>1</dim>
					<dim>1</dim>
					<dim>3</dim>
					<dim>3</dim>
				</port>
			</input>
			<output>
				<port id="2" precision="FP32" names="p2o.pd_op.depthwise_conv2d.1.0">
					<dim>-1</dim>
					<dim>32</dim>
					<dim>-1</dim>
					<dim>-1</dim>
				</port>
			</output>
		</layer>
		<layer id="39" name="Constant_7202_compressed" type="Const" version="opset1">
			<data element_type="f16" shape="1, 32, 1, 1" offset="2048" size="64" />
			<output>
				<port id="0" precision="FP16">
					<dim>1</dim>
					<dim>32</dim>
					<dim>1</dim>
					<dim>1</dim>
				</port>
			</output>
		</layer>
		<layer id="40" name="Constant_7202" type="Convert" version="opset1">
			<data destination_type="f32" />
			<rt_info>
				<attribute name="decompression" version="0" />
			</rt_info>
			<input>
				<port id="0" precision="FP16">
					<dim>1</dim>
					<dim>32</dim>
					<dim>1</dim>
					<dim>1</dim>
				</port>
			</input>
			<output>
				<port id="1" precision="FP32">
					<dim>1</dim>
					<dim>32</dim>
					<dim>1</dim>
					<dim>1</dim>
				</port>
			</output>
		</layer>
		<layer id="41" name="BatchNormalization.5" type="Add" version="opset1">
			<data auto_broadcast="numpy" />
			<input>
				<port id="0" precision="FP32">
					<dim>-1</dim>
					<dim>32</dim>
					<dim>-1</dim>
					<dim>-1</dim>
				</port>
				<port id="1" precision="FP32">
					<dim>1</dim>
					<dim>32</dim>
					<dim>1</dim>
					<dim>1</dim>
				</port>
			</input>
			<output>
				<port id="2" precision="FP32" names="p2o.pd_op.batch_norm_.5.0">
					<dim>-1</dim>
					<dim>32</dim>
					<dim>-1</dim>
					<dim>-1</dim>
				</port>
			</output>
		</layer>
		<layer id="42" name="Relu.3" type="ReLU" version="opset1">
			<input>
				<port id="0" precision="FP32">
					<dim>-1</dim>
					<dim>32</dim>
					<dim>-1</dim>
					<dim>-1</dim>
				</port>
			</input>
			<output>
				<port id="1" precision="FP32" names="p2o.pd_op.relu.3.0">
					<dim>-1</dim>
					<dim>32</dim>
					<dim>-1</dim>
					<dim>-1</dim>
				</port>
			</output>
		</layer>
		<layer id="43" name="Multiply_7532_compressed" type="Const" version="opset1">
			<data element_type="f16" shape="16, 32, 1, 1" offset="2112" size="1024" />
			<output>
				<port id="0" precision="FP16">
					<dim>16</dim>
					<dim>32</dim>
					<dim>1</dim>
					<dim>1</dim>
				</port>
			</output>
		</layer>
		<layer id="44" name="Multiply_7532" type="Convert" version="opset1">
			<data destination_type="f32" />
			<rt_info>
				<attribute name="decompression" version="0" />
			</rt_info>
			<input>
				<port id="0" precision="FP16">
					<dim>16</dim>
					<dim>32</dim>
					<dim>1</dim>
					<dim>1</dim>
				</port>
			</input>
			<output>
				<port id="1" precision="FP32">
					<dim>16</dim>
					<dim>32</dim>
					<dim>1</dim>
					<dim>1</dim>
				</port>
			</output>
		</layer>
		<layer id="45" name="Multiply_7204" type="Convolution" version="opset1">
			<data strides="1, 1" dilations="1, 1" pads_begin="0, 0" pads_end="0, 0" auto_pad="explicit" />
			<input>
				<port id="0" precision="FP32">
					<dim>-1</dim>
					<dim>32</dim>
					<dim>-1</dim>
					<dim>-1</dim>
				</port>
				<port id="1" precision="FP32">
					<dim>16</dim>
					<dim>32</dim>
					<dim>1</dim>
					<dim>1</dim>
				</port>
			</input>
			<output>
				<port id="2" precision="FP32">
					<dim>-1</dim>
					<dim>16</dim>
					<dim>-1</dim>
					<dim>-1</dim>
				</port>
			</output>
		</layer>
		<layer id="46" name="Constant_7209_compressed" type="Const" version="opset1">
			<data element_type="f16" shape="1, 16, 1, 1" offset="3136" size="32" />
			<output>
				<port id="0" precision="FP16">
					<dim>1</dim>
					<dim>16</dim>
					<dim>1</dim>
					<dim>1</dim>
				</port>
			</output>
		</layer>
		<layer id="47" name="Constant_7209" type="Convert" version="opset1">
			<data destination_type="f32" />
			<rt_info>
				<attribute name="decompression" version="0" />
			</rt_info>
			<input>
				<port id="0" precision="FP16">
					<dim>1</dim>
					<dim>16</dim>
					<dim>1</dim>
					<dim>1</dim>
				</port>
			</input>
			<output>
				<port id="1" precision="FP32">
					<dim>1</dim>
					<dim>16</dim>
					<dim>1</dim>
					<dim>1</dim>
				</port>
			</output>
		</layer>
		<layer id="48" name="BatchNormalization.6" type="Add" version="opset1">
			<data auto_broadcast="numpy" />
			<input>
				<port id="0" precision="FP32">
					<dim>-1</dim>
					<dim>16</dim>
					<dim>-1</dim>
					<dim>-1</dim>
				</port>
				<port id="1" precision="FP32">
					<dim>1</dim>
					<dim>16</dim>
					<dim>1</dim>
					<dim>1</dim>
				</port>
			</input>
			<output>
				<port id="2" precision="FP32" names="p2o.pd_op.batch_norm_.6.0">
					<dim>-1</dim>
					<dim>16</dim>
					<dim>-1</dim>
					<dim>-1</dim>
				</port>
			</output>
		</layer>
		<layer id="49" name="Multiply_7536_compressed" type="Const" version="opset1">
			<data element_type="f16" shape="40, 16, 1, 1" offset="3168" size="1280" />
			<output>
				<port id="0" precision="FP16">
					<dim>40</dim>
					<dim>16</dim>
					<dim>1</dim>
					<dim>1</dim>
				</port>
			</output>
		</layer>
		<layer id="50" name="Multiply_7536" type="Convert" version="opset1">
			<data destination_type="f32" />
			<rt_info>
				<attribute name="decompression" version="0" />
			</rt_info>
			<input>
				<port id="0" precision="FP16">
					<dim>40</dim>
					<dim>16</dim>
					<dim>1</dim>
					<dim>1</dim>
				</port>
			</input>
			<output>
				<port id="1" precision="FP32">
					<dim>40</dim>
					<dim>16</dim>
					<dim>1</dim>
					<dim>1</dim>
				</port>
			</output>
		</layer>
		<layer id="51" name="Multiply_7211" type="Convolution" version="opset1">
			<data strides="1, 1" dilations="1, 1" pads_begin="0, 0" pads_end="0, 0" auto_pad="explicit" />
			<input>
				<port id="0" precision="FP32">
					<dim>-1</dim>
					<dim>16</dim>
					<dim>-1</dim>
					<dim>-1</dim>
				</port>
				<port id="1" precision="FP32">
					<dim>40</dim>
					<dim>16</dim>
					<dim>1</dim>
					<dim>1</dim>
				</port>
			</input>
			<output>
				<port id="2" precision="FP32">
					<dim>-1</dim>
					<dim>40</dim>
					<dim>-1</dim>
					<dim>-1</dim>
				</port>
			</output>
		</layer>
		<layer id="52" name="Constant_7216_compressed" type="Const" version="opset1">
			<data element_type="f16" shape="1, 40, 1, 1" offset="4448" size="80" />
			<output>
				<port id="0" precision="FP16">
					<dim>1</dim>
					<dim>40</dim>
					<dim>1</dim>
					<dim>1</dim>
				</port>
			</output>
		</layer>
		<layer id="53" name="Constant_7216" type="Convert" version="opset1">
			<data destination_type="f32" />
			<rt_info>
				<attribute name="decompression" version="0" />
			</rt_info>
			<input>
				<port id="0" precision="FP16">
					<dim>1</dim>
					<dim>40</dim>
					<dim>1</dim>
					<dim>1</dim>
				</port>
			</input>
			<output>
				<port id="1" precision="FP32">
					<dim>1</dim>
					<dim>40</dim>
					<dim>1</dim>
					<dim>1</dim>
				</port>
			</output>
		</layer>
		<layer id="54" name="BatchNormalization.7" type="Add" version="opset1">
			<data auto_broadcast="numpy" />
			<input>
				<port id="0" precision="FP32">
					<dim>-1</dim>
					<dim>40</dim>
					<dim>-1</dim>
					<dim>-1</dim>
				</port>
				<port id="1" precision="FP32">
					<dim>1</dim>
					<dim>40</dim>
					<dim>1</dim>
					<dim>1</dim>
				</port>
			</input>
			<output>
				<port id="2" precision="FP32" names="p2o.pd_op.batch_norm_.7.0">
					<dim>-1</dim>
					<dim>40</dim>
					<dim>-1</dim>
					<dim>-1</dim>
				</port>
			</output>
		</layer>
		<layer id="55" name="Relu.4" type="ReLU" version="opset1">
			<input>
				<port id="0" precision="FP32">
					<dim>-1</dim>
					<dim>40</dim>
					<dim>-1</dim>
					<dim>-1</dim>
				</port>
			</input>
			<output>
				<port id="1" precision="FP32" names="p2o.pd_op.relu.4.0">
					<dim>-1</dim>
					<dim>40</dim>
					<dim>-1</dim>
					<dim>-1</dim>
				</port>
			</output>
		</layer>
		<layer id="56" name="Multiply_7540_compressed" type="Const" version="opset1">
			<data element_type="f16" shape="40, 1, 1, 3, 3" offset="4528" size="720" />
			<output>
				<port id="0" precision="FP16">
					<dim>40</dim>
					<dim>1</dim>
					<dim>1</dim>
					<dim>3</dim>
					<dim>3</dim>
				</port>
			</output>
		</layer>
		<layer id="57" name="Multiply_7540" type="Convert" version="opset1">
			<data destination_type="f32" />
			<rt_info>
				<attribute name="decompression" version="0" />
			</rt_info>
			<input>
				<port id="0" precision="FP16">
					<dim>40</dim>
					<dim>1</dim>
					<dim>1</dim>
					<dim>3</dim>
					<dim>3</dim>
				</port>
			</input>
			<output>
				<port id="1" precision="FP32">
					<dim>40</dim>
					<dim>1</dim>
					<dim>1</dim>
					<dim>3</dim>
					<dim>3</dim>
				</port>
			</output>
		</layer>
		<layer id="58" name="Multiply_7218" type="GroupConvolution" version="opset1">
			<data strides="1, 1" pads_begin="1, 1" pads_end="1, 1" dilations="1, 1" auto_pad="explicit" />
			<input>
				<port id="0" precision="FP32">
					<dim>-1</dim>
					<dim>40</dim>
					<dim>-1</dim>
					<dim>-1</dim>
				</port>
				<port id="1" precision="FP32">
					<dim>40</dim>
					<dim>1</dim>
					<dim>1</dim>
					<dim>3</dim>
					<dim>3</dim>
				</port>
			</input>
			<output>
				<port id="2" precision="FP32" names="p2o.pd_op.depthwise_conv2d.2.0">
					<dim>-1</dim>
					<dim>40</dim>
					<dim>-1</dim>
					<dim>-1</dim>
				</port>
			</output>
		</layer>
		<layer id="59" name="Constant_7223_compressed" type="Const" version="opset1">
			<data element_type="f16" shape="1, 40, 1, 1" offset="5248" size="80" />
			<output>
				<port id="0" precision="FP16">
					<dim>1</dim>
					<dim>40</dim>
					<dim>1</dim>
					<dim>1</dim>
				</port>
			</output>
		</layer>
		<layer id="60" name="Constant_7223" type="Convert" version="opset1">
			<data destination_type="f32" />
			<rt_info>
				<attribute name="decompression" version="0" />
			</rt_info>
			<input>
				<port id="0" precision="FP16">
					<dim>1</dim>
					<dim>40</dim>
					<dim>1</dim>
					<dim>1</dim>
				</port>
			</input>
			<output>
				<port id="1" precision="FP32">
					<dim>1</dim>
					<dim>40</dim>
					<dim>1</dim>
					<dim>1</dim>
				</port>
			</output>
		</layer>
		<layer id="61" name="BatchNormalization.8" type="Add" version="opset1">
			<data auto_broadcast="numpy" />
			<input>
				<port id="0" precision="FP32">
					<dim>-1</dim>
					<dim>40</dim>
					<dim>-1</dim>
					<dim>-1</dim>
				</port>
				<port id="1" precision="FP32">
					<dim>1</dim>
					<dim>40</dim>
					<dim>1</dim>
					<dim>1</dim>
				</port>
			</input>
			<output>
				<port id="2" precision="FP32" names="p2o.pd_op.batch_norm_.8.0">
					<dim>-1</dim>
					<dim>40</dim>
					<dim>-1</dim>
					<dim>-1</dim>
				</port>
			</output>
		</layer>
		<layer id="62" name="Relu.5" type="ReLU" version="opset1">
			<input>
				<port id="0" precision="FP32">
					<dim>-1</dim>
					<dim>40</dim>
					<dim>-1</dim>
					<dim>-1</dim>
				</port>
			</input>
			<output>
				<port id="1" precision="FP32" names="p2o.pd_op.relu.5.0">
					<dim>-1</dim>
					<dim>40</dim>
					<dim>-1</dim>
					<dim>-1</dim>
				</port>
			</output>
		</layer>
		<layer id="63" name="Multiply_7543_compressed" type="Const" version="opset1">
			<data element_type="f16" shape="16, 40, 1, 1" offset="5328" size="1280" />
			<output>
				<port id="0" precision="FP16">
					<dim>16</dim>
					<dim>40</dim>
					<dim>1</dim>
					<dim>1</dim>
				</port>
			</output>
		</layer>
		<layer id="64" name="Multiply_7543" type="Convert" version="opset1">
			<data destination_type="f32" />
			<rt_info>
				<attribute name="decompression" version="0" />
			</rt_info>
			<input>
				<port id="0" precision="FP16">
					<dim>16</dim>
					<dim>40</dim>
					<dim>1</dim>
					<dim>1</dim>
				</port>
			</input>
			<output>
				<port id="1" precision="FP32">
					<dim>16</dim>
					<dim>40</dim>
					<dim>1</dim>
					<dim>1</dim>
				</port>
			</output>
		</layer>
		<layer id="65" name="Multiply_7225" type="Convolution" version="opset1">
			<data strides="1, 1" dilations="1, 1" pads_begin="0, 0" pads_end="0, 0" auto_pad="explicit" />
			<input>
				<port id="0" precision="FP32">
					<dim>-1</dim>
					<dim>40</dim>
					<dim>-1</dim>
					<dim>-1</dim>
				</port>
				<port id="1" precision="FP32">
					<dim>16</dim>
					<dim>40</dim>
					<dim>1</dim>
					<dim>1</dim>
				</port>
			</input>
			<output>
				<port id="2" precision="FP32">
					<dim>-1</dim>
					<dim>16</dim>
					<dim>-1</dim>
					<dim>-1</dim>
				</port>
			</output>
		</layer>
		<layer id="66" name="Constant_7230_compressed" type="Const" version="opset1">
			<data element_type="f16" shape="1, 16, 1, 1" offset="6608" size="32" />
			<output>
				<port id="0" precision="FP16">
					<dim>1</dim>
					<dim>16</dim>
					<dim>1</dim>
					<dim>1</dim>
				</port>
			</output>
		</layer>
		<layer id="67" name="Constant_7230" type="Convert" version="opset1">
			<data destination_type="f32" />
			<rt_info>
				<attribute name="decompression" version="0" />
			</rt_info>
			<input>
				<port id="0" precision="FP16">
					<dim>1</dim>
					<dim>16</dim>
					<dim>1</dim>
					<dim>1</dim>
				</port>
			</input>
			<output>
				<port id="1" precision="FP32">
					<dim>1</dim>
					<dim>16</dim>
					<dim>1</dim>
					<dim>1</dim>
				</port>
			</output>
		</layer>
		<layer id="68" name="BatchNormalization.9" type="Add" version="opset1">
			<data auto_broadcast="numpy" />
			<input>
				<port id="0" precision="FP32">
					<dim>-1</dim>
					<dim>16</dim>
					<dim>-1</dim>
					<dim>-1</dim>
				</port>
				<port id="1" precision="FP32">
					<dim>1</dim>
					<dim>16</dim>
					<dim>1</dim>
					<dim>1</dim>
				</port>
			</input>
			<output>
				<port id="2" precision="FP32" names="p2o.pd_op.batch_norm_.9.0">
					<dim>-1</dim>
					<dim>16</dim>
					<dim>-1</dim>
					<dim>-1</dim>
				</port>
			</output>
		</layer>
		<layer id="69" name="Add.2" type="Add" version="opset1">
			<data auto_broadcast="numpy" />
			<input>
				<port id="0" precision="FP32">
					<dim>-1</dim>
					<dim>16</dim>
					<dim>-1</dim>
					<dim>-1</dim>
				</port>
				<port id="1" precision="FP32">
					<dim>-1</dim>
					<dim>16</dim>
					<dim>-1</dim>
					<dim>-1</dim>
				</port>
			</input>
			<output>
				<port id="2" precision="FP32" names="Add.3">
					<dim>-1</dim>
					<dim>16</dim>
					<dim>-1</dim>
					<dim>-1</dim>
				</port>
			</output>
		</layer>
		<layer id="70" name="Multiply_7547_compressed" type="Const" version="opset1">
			<data element_type="f16" shape="40, 16, 1, 1" offset="6640" size="1280" />
			<output>
				<port id="0" precision="FP16">
					<dim>40</dim>
					<dim>16</dim>
					<dim>1</dim>
					<dim>1</dim>
				</port>
			</output>
		</layer>
		<layer id="71" name="Multiply_7547" type="Convert" version="opset1">
			<data destination_type="f32" />
			<rt_info>
				<attribute name="decompression" version="0" />
			</rt_info>
			<input>
				<port id="0" precision="FP16">
					<dim>40</dim>
					<dim>16</dim>
					<dim>1</dim>
					<dim>1</dim>
				</port>
			</input>
			<output>
				<port id="1" precision="FP32">
					<dim>40</dim>
					<dim>16</dim>
					<dim>1</dim>
					<dim>1</dim>
				</port>
			</output>
		</layer>
		<layer id="72" name="Multiply_7232" type="Convolution" version="opset1">
			<data strides="1, 1" dilations="1, 1" pads_begin="0, 0" pads_end="0, 0" auto_pad="explicit" />
			<input>
				<port id="0" precision="FP32">
					<dim>-1</dim>
					<dim>16</dim>
					<dim>-1</dim>
					<dim>-1</dim>
				</port>
				<port id="1" precision="FP32">
					<dim>40</dim>
					<dim>16</dim>
					<dim>1</dim>
					<dim>1</dim>
				</port>
			</input>
			<output>
				<port id="2" precision="FP32">
					<dim>-1</dim>
					<dim>40</dim>
					<dim>-1</dim>
					<dim>-1</dim>
				</port>
			</output>
		</layer>
		<layer id="73" name="Constant_7237_compressed" type="Const" version="opset1">
			<data element_type="f16" shape="1, 40, 1, 1" offset="7920" size="80" />
			<output>
				<port id="0" precision="FP16">
					<dim>1</dim>
					<dim>40</dim>
					<dim>1</dim>
					<dim>1</dim>
				</port>
			</output>
		</layer>
		<layer id="74" name="Constant_7237" type="Convert" version="opset1">
			<data destination_type="f32" />
			<rt_info>
				<attribute name="decompression" version="0" />
			</rt_info>
			<input>
				<port id="0" precision="FP16">
					<dim>1</dim>
					<dim>40</dim>
					<dim>1</dim>
					<dim>1</dim>
				</port>
			</input>
			<output>
				<port id="1" precision="FP32">
					<dim>1</dim>
					<dim>40</dim>
					<dim>1</dim>
					<dim>1</dim>
				</port>
			</output>
		</layer>
		<layer id="75" name="BatchNormalization.10" type="Add" version="opset1">
			<data auto_broadcast="numpy" />
			<input>
				<port id="0" precision="FP32">
					<dim>-1</dim>
					<dim>40</dim>
					<dim>-1</dim>
					<dim>-1</dim>
				</port>
				<port id="1" precision="FP32">
					<dim>1</dim>
					<dim>40</dim>
					<dim>1</dim>
					<dim>1</dim>
				</port>
			</input>
			<output>
				<port id="2" precision="FP32" names="p2o.pd_op.batch_norm_.10.0">
					<dim>-1</dim>
					<dim>40</dim>
					<dim>-1</dim>
					<dim>-1</dim>
				</port>
			</output>
		</layer>
		<layer id="76" name="Relu.6" type="ReLU" version="opset1">
			<input>
				<port id="0" precision="FP32">
					<dim>-1</dim>
					<dim>40</dim>
					<dim>-1</dim>
					<dim>-1</dim>
				</port>
			</input>
			<output>
				<port id="1" precision="FP32" names="p2o.pd_op.relu.6.0">
					<dim>-1</dim>
					<dim>40</dim>
					<dim>-1</dim>
					<dim>-1</dim>
				</port>
			</output>
		</layer>
		<layer id="77" name="Multiply_7551_compressed" type="Const" version="opset1">
			<data element_type="f16" shape="40, 1, 1, 5, 5" offset="8000" size="2000" />
			<output>
				<port id="0" precision="FP16">
					<dim>40</dim>
					<dim>1</dim>
					<dim>1</dim>
					<dim>5</dim>
					<dim>5</dim>
				</port>
			</output>
		</layer>
		<layer id="78" name="Multiply_7551" type="Convert" version="opset1">
			<data destination_type="f32" />
			<rt_info>
				<attribute name="decompression" version="0" />
			</rt_info>
			<input>
				<port id="0" precision="FP16">
					<dim>40</dim>
					<dim>1</dim>
					<dim>1</dim>
					<dim>5</dim>
					<dim>5</dim>
				</port>
			</input>
			<output>
				<port id="1" precision="FP32">
					<dim>40</dim>
					<dim>1</dim>
					<dim>1</dim>
					<dim>5</dim>
					<dim>5</dim>
				</port>
			</output>
		</layer>
		<layer id="79" name="Multiply_7239" type="GroupConvolution" version="opset1">
			<data strides="2, 2" pads_begin="2, 2" pads_end="2, 2" dilations="1, 1" auto_pad="explicit" />
			<input>
				<port id="0" precision="FP32">
					<dim>-1</dim>
					<dim>40</dim>
					<dim>-1</dim>
					<dim>-1</dim>
				</port>
				<port id="1" precision="FP32">
					<dim>40</dim>
					<dim>1</dim>
					<dim>1</dim>
					<dim>5</dim>
					<dim>5</dim>
				</port>
			</input>
			<output>
				<port id="2" precision="FP32" names="p2o.pd_op.depthwise_conv2d.3.0">
					<dim>-1</dim>
					<dim>40</dim>
					<dim>-1</dim>
					<dim>-1</dim>
				</port>
			</output>
		</layer>
		<layer id="80" name="Constant_7244_compressed" type="Const" version="opset1">
			<data element_type="f16" shape="1, 40, 1, 1" offset="10000" size="80" />
			<output>
				<port id="0" precision="FP16">
					<dim>1</dim>
					<dim>40</dim>
					<dim>1</dim>
					<dim>1</dim>
				</port>
			</output>
		</layer>
		<layer id="81" name="Constant_7244" type="Convert" version="opset1">
			<data destination_type="f32" />
			<rt_info>
				<attribute name="decompression" version="0" />
			</rt_info>
			<input>
				<port id="0" precision="FP16">
					<dim>1</dim>
					<dim>40</dim>
					<dim>1</dim>
					<dim>1</dim>
				</port>
			</input>
			<output>
				<port id="1" precision="FP32">
					<dim>1</dim>
					<dim>40</dim>
					<dim>1</dim>
					<dim>1</dim>
				</port>
			</output>
		</layer>
		<layer id="82" name="BatchNormalization.11" type="Add" version="opset1">
			<data auto_broadcast="numpy" />
			<input>
				<port id="0" precision="FP32">
					<dim>-1</dim>
					<dim>40</dim>
					<dim>-1</dim>
					<dim>-1</dim>
				</port>
				<port id="1" precision="FP32">
					<dim>1</dim>
					<dim>40</dim>
					<dim>1</dim>
					<dim>1</dim>
				</port>
			</input>
			<output>
				<port id="2" precision="FP32" names="p2o.pd_op.batch_norm_.11.0">
					<dim>-1</dim>
					<dim>40</dim>
					<dim>-1</dim>
					<dim>-1</dim>
				</port>
			</output>
		</layer>
		<layer id="83" name="Relu.7" type="ReLU" version="opset1">
			<input>
				<port id="0" precision="FP32">
					<dim>-1</dim>
					<dim>40</dim>
					<dim>-1</dim>
					<dim>-1</dim>
				</port>
			</input>
			<output>
				<port id="1" precision="FP32" names="p2o.pd_op.relu.7.0">
					<dim>-1</dim>
					<dim>40</dim>
					<dim>-1</dim>
					<dim>-1</dim>
				</port>
			</output>
		</layer>
		<layer id="84" name="Multiply_7554_compressed" type="Const" version="opset1">
			<data element_type="f16" shape="24, 40, 1, 1" offset="10080" size="1920" />
			<output>
				<port id="0" precision="FP16">
					<dim>24</dim>
					<dim>40</dim>
					<dim>1</dim>
					<dim>1</dim>
				</port>
			</output>
		</layer>
		<layer id="85" name="Multiply_7554" type="Convert" version="opset1">
			<data destination_type="f32" />
			<rt_info>
				<attribute name="decompression" version="0" />
			</rt_info>
			<input>
				<port id="0" precision="FP16">
					<dim>24</dim>
					<dim>40</dim>
					<dim>1</dim>
					<dim>1</dim>
				</port>
			</input>
			<output>
				<port id="1" precision="FP32">
					<dim>24</dim>
					<dim>40</dim>
					<dim>1</dim>
					<dim>1</dim>
				</port>
			</output>
		</layer>
		<layer id="86" name="Multiply_7246" type="Convolution" version="opset1">
			<data strides="1, 1" dilations="1, 1" pads_begin="0, 0" pads_end="0, 0" auto_pad="explicit" />
			<input>
				<port id="0" precision="FP32">
					<dim>-1</dim>
					<dim>40</dim>
					<dim>-1</dim>
					<dim>-1</dim>
				</port>
				<port id="1" precision="FP32">
					<dim>24</dim>
					<dim>40</dim>
					<dim>1</dim>
					<dim>1</dim>
				</port>
			</input>
			<output>
				<port id="2" precision="FP32">
					<dim>-1</dim>
					<dim>24</dim>
					<dim>-1</dim>
					<dim>-1</dim>
				</port>
			</output>
		</layer>
		<layer id="87" name="Constant_7251_compressed" type="Const" version="opset1">
			<data element_type="f16" shape="1, 24, 1, 1" offset="12000" size="48" />
			<output>
				<port id="0" precision="FP16">
					<dim>1</dim>
					<dim>24</dim>
					<dim>1</dim>
					<dim>1</dim>
				</port>
			</output>
		</layer>
		<layer id="88" name="Constant_7251" type="Convert" version="opset1">
			<data destination_type="f32" />
			<rt_info>
				<attribute name="decompression" version="0" />
			</rt_info>
			<input>
				<port id="0" precision="FP16">
					<dim>1</dim>
					<dim>24</dim>
					<dim>1</dim>
					<dim>1</dim>
				</port>
			</input>
			<output>
				<port id="1" precision="FP32">
					<dim>1</dim>
					<dim>24</dim>
					<dim>1</dim>
					<dim>1</dim>
				</port>
			</output>
		</layer>
		<layer id="89" name="BatchNormalization.12" type="Add" version="opset1">
			<data auto_broadcast="numpy" />
			<input>
				<port id="0" precision="FP32">
					<dim>-1</dim>
					<dim>24</dim>
					<dim>-1</dim>
					<dim>-1</dim>
				</port>
				<port id="1" precision="FP32">
					<dim>1</dim>
					<dim>24</dim>
					<dim>1</dim>
					<dim>1</dim>
				</port>
			</input>
			<output>
				<port id="2" precision="FP32" names="p2o.pd_op.batch_norm_.12.0">
					<dim>-1</dim>
					<dim>24</dim>
					<dim>-1</dim>
					<dim>-1</dim>
				</port>
			</output>
		</layer>
		<layer id="90" name="Multiply_7558_compressed" type="Const" version="opset1">
			<data element_type="f16" shape="64, 24, 1, 1" offset="12048" size="3072" />
			<output>
				<port id="0" precision="FP16">
					<dim>64</dim>
					<dim>24</dim>
					<dim>1</dim>
					<dim>1</dim>
				</port>
			</output>
		</layer>
		<layer id="91" name="Multiply_7558" type="Convert" version="opset1">
			<data destination_type="f32" />
			<rt_info>
				<attribute name="decompression" version="0" />
			</rt_info>
			<input>
				<port id="0" precision="FP16">
					<dim>64</dim>
					<dim>24</dim>
					<dim>1</dim>
					<dim>1</dim>
				</port>
			</input>
			<output>
				<port id="1" precision="FP32">
					<dim>64</dim>
					<dim>24</dim>
					<dim>1</dim>
					<dim>1</dim>
				</port>
			</output>
		</layer>
		<layer id="92" name="Multiply_7253" type="Convolution" version="opset1">
			<data strides="1, 1" dilations="1, 1" pads_begin="0, 0" pads_end="0, 0" auto_pad="explicit" />
			<input>
				<port id="0" precision="FP32">
					<dim>-1</dim>
					<dim>24</dim>
					<dim>-1</dim>
					<dim>-1</dim>
				</port>
				<port id="1" precision="FP32">
					<dim>64</dim>
					<dim>24</dim>
					<dim>1</dim>
					<dim>1</dim>
				</port>
			</input>
			<output>
				<port id="2" precision="FP32">
					<dim>-1</dim>
					<dim>64</dim>
					<dim>-1</dim>
					<dim>-1</dim>
				</port>
			</output>
		</layer>
		<layer id="93" name="Constant_7258_compressed" type="Const" version="opset1">
			<data element_type="f16" shape="1, 64, 1, 1" offset="15120" size="128" />
			<output>
				<port id="0" precision="FP16">
					<dim>1</dim>
					<dim>64</dim>
					<dim>1</dim>
					<dim>1</dim>
				</port>
			</output>
		</layer>
		<layer id="94" name="Constant_7258" type="Convert" version="opset1">
			<data destination_type="f32" />
			<rt_info>
				<attribute name="decompression" version="0" />
			</rt_info>
			<input>
				<port id="0" precision="FP16">
					<dim>1</dim>
					<dim>64</dim>
					<dim>1</dim>
					<dim>1</dim>
				</port>
			</input>
			<output>
				<port id="1" precision="FP32">
					<dim>1</dim>
					<dim>64</dim>
					<dim>1</dim>
					<dim>1</dim>
				</port>
			</output>
		</layer>
		<layer id="95" name="BatchNormalization.13" type="Add" version="opset1">
			<data auto_broadcast="numpy" />
			<input>
				<port id="0" precision="FP32">
					<dim>-1</dim>
					<dim>64</dim>
					<dim>-1</dim>
					<dim>-1</dim>
				</port>
				<port id="1" precision="FP32">
					<dim>1</dim>
					<dim>64</dim>
					<dim>1</dim>
					<dim>1</dim>
				</port>
			</input>
			<output>
				<port id="2" precision="FP32" names="p2o.pd_op.batch_norm_.13.0">
					<dim>-1</dim>
					<dim>64</dim>
					<dim>-1</dim>
					<dim>-1</dim>
				</port>
			</output>
		</layer>
		<layer id="96" name="Relu.8" type="ReLU" version="opset1">
			<input>
				<port id="0" precision="FP32">
					<dim>-1</dim>
					<dim>64</dim>
					<dim>-1</dim>
					<dim>-1</dim>
				</port>
			</input>
			<output>
				<port id="1" precision="FP32" names="p2o.pd_op.relu.8.0">
					<dim>-1</dim>
					<dim>64</dim>
					<dim>-1</dim>
					<dim>-1</dim>
				</port>
			</output>
		</layer>
		<layer id="97" name="Multiply_7562_compressed" type="Const" version="opset1">
			<data element_type="f16" shape="64, 1, 1, 5, 5" offset="15248" size="3200" />
			<output>
				<port id="0" precision="FP16">
					<dim>64</dim>
					<dim>1</dim>
					<dim>1</dim>
					<dim>5</dim>
					<dim>5</dim>
				</port>
			</output>
		</layer>
		<layer id="98" name="Multiply_7562" type="Convert" version="opset1">
			<data destination_type="f32" />
			<rt_info>
				<attribute name="decompression" version="0" />
			</rt_info>
			<input>
				<port id="0" precision="FP16">
					<dim>64</dim>
					<dim>1</dim>
					<dim>1</dim>
					<dim>5</dim>
					<dim>5</dim>
				</port>
			</input>
			<output>
				<port id="1" precision="FP32">
					<dim>64</dim>
					<dim>1</dim>
					<dim>1</dim>
					<dim>5</dim>
					<dim>5</dim>
				</port>
			</output>
		</layer>
		<layer id="99" name="Multiply_7260" type="GroupConvolution" version="opset1">
			<data strides="1, 1" pads_begin="2, 2" pads_end="2, 2" dilations="1, 1" auto_pad="explicit" />
			<input>
				<port id="0" precision="FP32">
					<dim>-1</dim>
					<dim>64</dim>
					<dim>-1</dim>
					<dim>-1</dim>
				</port>
				<port id="1" precision="FP32">
					<dim>64</dim>
					<dim>1</dim>
					<dim>1</dim>
					<dim>5</dim>
					<dim>5</dim>
				</port>
			</input>
			<output>
				<port id="2" precision="FP32" names="p2o.pd_op.depthwise_conv2d.4.0">
					<dim>-1</dim>
					<dim>64</dim>
					<dim>-1</dim>
					<dim>-1</dim>
				</port>
			</output>
		</layer>
		<layer id="100" name="Constant_7265_compressed" type="Const" version="opset1">
			<data element_type="f16" shape="1, 64, 1, 1" offset="18448" size="128" />
			<output>
				<port id="0" precision="FP16">
					<dim>1</dim>
					<dim>64</dim>
					<dim>1</dim>
					<dim>1</dim>
				</port>
			</output>
		</layer>
		<layer id="101" name="Constant_7265" type="Convert" version="opset1">
			<data destination_type="f32" />
			<rt_info>
				<attribute name="decompression" version="0" />
			</rt_info>
			<input>
				<port id="0" precision="FP16">
					<dim>1</dim>
					<dim>64</dim>
					<dim>1</dim>
					<dim>1</dim>
				</port>
			</input>
			<output>
				<port id="1" precision="FP32">
					<dim>1</dim>
					<dim>64</dim>
					<dim>1</dim>
					<dim>1</dim>
				</port>
			</output>
		</layer>
		<layer id="102" name="BatchNormalization.14" type="Add" version="opset1">
			<data auto_broadcast="numpy" />
			<input>
				<port id="0" precision="FP32">
					<dim>-1</dim>
					<dim>64</dim>
					<dim>-1</dim>
					<dim>-1</dim>
				</port>
				<port id="1" precision="FP32">
					<dim>1</dim>
					<dim>64</dim>
					<dim>1</dim>
					<dim>1</dim>
				</port>
			</input>
			<output>
				<port id="2" precision="FP32" names="p2o.pd_op.batch_norm_.14.0">
					<dim>-1</dim>
					<dim>64</dim>
					<dim>-1</dim>
					<dim>-1</dim>
				</port>
			</output>
		</layer>
		<layer id="103" name="Relu.9" type="ReLU" version="opset1">
			<input>
				<port id="0" precision="FP32">
					<dim>-1</dim>
					<dim>64</dim>
					<dim>-1</dim>
					<dim>-1</dim>
				</port>
			</input>
			<output>
				<port id="1" precision="FP32" names="p2o.pd_op.relu.9.0">
					<dim>-1</dim>
					<dim>64</dim>
					<dim>-1</dim>
					<dim>-1</dim>
				</port>
			</output>
		</layer>
		<layer id="104" name="Multiply_7565_compressed" type="Const" version="opset1">
			<data element_type="f16" shape="24, 64, 1, 1" offset="18576" size="3072" />
			<output>
				<port id="0" precision="FP16">
					<dim>24</dim>
					<dim>64</dim>
					<dim>1</dim>
					<dim>1</dim>
				</port>
			</output>
		</layer>
		<layer id="105" name="Multiply_7565" type="Convert" version="opset1">
			<data destination_type="f32" />
			<rt_info>
				<attribute name="decompression" version="0" />
			</rt_info>
			<input>
				<port id="0" precision="FP16">
					<dim>24</dim>
					<dim>64</dim>
					<dim>1</dim>
					<dim>1</dim>
				</port>
			</input>
			<output>
				<port id="1" precision="FP32">
					<dim>24</dim>
					<dim>64</dim>
					<dim>1</dim>
					<dim>1</dim>
				</port>
			</output>
		</layer>
		<layer id="106" name="Multiply_7267" type="Convolution" version="opset1">
			<data strides="1, 1" dilations="1, 1" pads_begin="0, 0" pads_end="0, 0" auto_pad="explicit" />
			<input>
				<port id="0" precision="FP32">
					<dim>-1</dim>
					<dim>64</dim>
					<dim>-1</dim>
					<dim>-1</dim>
				</port>
				<port id="1" precision="FP32">
					<dim>24</dim>
					<dim>64</dim>
					<dim>1</dim>
					<dim>1</dim>
				</port>
			</input>
			<output>
				<port id="2" precision="FP32">
					<dim>-1</dim>
					<dim>24</dim>
					<dim>-1</dim>
					<dim>-1</dim>
				</port>
			</output>
		</layer>
		<layer id="107" name="Constant_7272_compressed" type="Const" version="opset1">
			<data element_type="f16" shape="1, 24, 1, 1" offset="21648" size="48" />
			<output>
				<port id="0" precision="FP16">
					<dim>1</dim>
					<dim>24</dim>
					<dim>1</dim>
					<dim>1</dim>
				</port>
			</output>
		</layer>
		<layer id="108" name="Constant_7272" type="Convert" version="opset1">
			<data destination_type="f32" />
			<rt_info>
				<attribute name="decompression" version="0" />
			</rt_info>
			<input>
				<port id="0" precision="FP16">
					<dim>1</dim>
					<dim>24</dim>
					<dim>1</dim>
					<dim>1</dim>
				</port>
			</input>
			<output>
				<port id="1" precision="FP32">
					<dim>1</dim>
					<dim>24</dim>
					<dim>1</dim>
					<dim>1</dim>
				</port>
			</output>
		</layer>
		<layer id="109" name="BatchNormalization.15" type="Add" version="opset1">
			<data auto_broadcast="numpy" />
			<input>
				<port id="0" precision="FP32">
					<dim>-1</dim>
					<dim>24</dim>
					<dim>-1</dim>
					<dim>-1</dim>
				</port>
				<port id="1" precision="FP32">
					<dim>1</dim>
					<dim>24</dim>
					<dim>1</dim>
					<dim>1</dim>
				</port>
			</input>
			<output>
				<port id="2" precision="FP32" names="p2o.pd_op.batch_norm_.15.0">
					<dim>-1</dim>
					<dim>24</dim>
					<dim>-1</dim>
					<dim>-1</dim>
				</port>
			</output>
		</layer>
		<layer id="110" name="Add.4" type="Add" version="opset1">
			<data auto_broadcast="numpy" />
			<input>
				<port id="0" precision="FP32">
					<dim>-1</dim>
					<dim>24</dim>
					<dim>-1</dim>
					<dim>-1</dim>
				</port>
				<port id="1" precision="FP32">
					<dim>-1</dim>
					<dim>24</dim>
					<dim>-1</dim>
					<dim>-1</dim>
				</port>
			</input>
			<output>
				<port id="2" precision="FP32" names="Add.5">
					<dim>-1</dim>
					<dim>24</dim>
					<dim>-1</dim>
					<dim>-1</dim>
				</port>
			</output>
		</layer>
		<layer id="111" name="Multiply_7569_compressed" type="Const" version="opset1">
			<data element_type="f16" shape="64, 24, 1, 1" offset="21696" size="3072" />
			<output>
				<port id="0" precision="FP16">
					<dim>64</dim>
					<dim>24</dim>
					<dim>1</dim>
					<dim>1</dim>
				</port>
			</output>
		</layer>
		<layer id="112" name="Multiply_7569" type="Convert" version="opset1">
			<data destination_type="f32" />
			<rt_info>
				<attribute name="decompression" version="0" />
			</rt_info>
			<input>
				<port id="0" precision="FP16">
					<dim>64</dim>
					<dim>24</dim>
					<dim>1</dim>
					<dim>1</dim>
				</port>
			</input>
			<output>
				<port id="1" precision="FP32">
					<dim>64</dim>
					<dim>24</dim>
					<dim>1</dim>
					<dim>1</dim>
				</port>
			</output>
		</layer>
		<layer id="113" name="Multiply_7274" type="Convolution" version="opset1">
			<data strides="1, 1" dilations="1, 1" pads_begin="0, 0" pads_end="0, 0" auto_pad="explicit" />
			<input>
				<port id="0" precision="FP32">
					<dim>-1</dim>
					<dim>24</dim>
					<dim>-1</dim>
					<dim>-1</dim>
				</port>
				<port id="1" precision="FP32">
					<dim>64</dim>
					<dim>24</dim>
					<dim>1</dim>
					<dim>1</dim>
				</port>
			</input>
			<output>
				<port id="2" precision="FP32">
					<dim>-1</dim>
					<dim>64</dim>
					<dim>-1</dim>
					<dim>-1</dim>
				</port>
			</output>
		</layer>
		<layer id="114" name="Constant_7279_compressed" type="Const" version="opset1">
			<data element_type="f16" shape="1, 64, 1, 1" offset="24768" size="128" />
			<output>
				<port id="0" precision="FP16">
					<dim>1</dim>
					<dim>64</dim>
					<dim>1</dim>
					<dim>1</dim>
				</port>
			</output>
		</layer>
		<layer id="115" name="Constant_7279" type="Convert" version="opset1">
			<data destination_type="f32" />
			<rt_info>
				<attribute name="decompression" version="0" />
			</rt_info>
			<input>
				<port id="0" precision="FP16">
					<dim>1</dim>
					<dim>64</dim>
					<dim>1</dim>
					<dim>1</dim>
				</port>
			</input>
			<output>
				<port id="1" precision="FP32">
					<dim>1</dim>
					<dim>64</dim>
					<dim>1</dim>
					<dim>1</dim>
				</port>
			</output>
		</layer>
		<layer id="116" name="BatchNormalization.16" type="Add" version="opset1">
			<data auto_broadcast="numpy" />
			<input>
				<port id="0" precision="FP32">
					<dim>-1</dim>
					<dim>64</dim>
					<dim>-1</dim>
					<dim>-1</dim>
				</port>
				<port id="1" precision="FP32">
					<dim>1</dim>
					<dim>64</dim>
					<dim>1</dim>
					<dim>1</dim>
				</port>
			</input>
			<output>
				<port id="2" precision="FP32" names="p2o.pd_op.batch_norm_.16.0">
					<dim>-1</dim>
					<dim>64</dim>
					<dim>-1</dim>
					<dim>-1</dim>
				</port>
			</output>
		</layer>
		<layer id="117" name="Relu.10" type="ReLU" version="opset1">
			<input>
				<port id="0" precision="FP32">
					<dim>-1</dim>
					<dim>64</dim>
					<dim>-1</dim>
					<dim>-1</dim>
				</port>
			</input>
			<output>
				<port id="1" precision="FP32" names="p2o.pd_op.relu.10.0">
					<dim>-1</dim>
					<dim>64</dim>
					<dim>-1</dim>
					<dim>-1</dim>
				</port>
			</output>
		</layer>
		<layer id="118" name="Multiply_7573_compressed" type="Const" version="opset1">
			<data element_type="f16" shape="64, 1, 1, 5, 5" offset="24896" size="3200" />
			<output>
				<port id="0" precision="FP16">
					<dim>64</dim>
					<dim>1</dim>
					<dim>1</dim>
					<dim>5</dim>
					<dim>5</dim>
				</port>
			</output>
		</layer>
		<layer id="119" name="Multiply_7573" type="Convert" version="opset1">
			<data destination_type="f32" />
			<rt_info>
				<attribute name="decompression" version="0" />
			</rt_info>
			<input>
				<port id="0" precision="FP16">
					<dim>64</dim>
					<dim>1</dim>
					<dim>1</dim>
					<dim>5</dim>
					<dim>5</dim>
				</port>
			</input>
			<output>
				<port id="1" precision="FP32">
					<dim>64</dim>
					<dim>1</dim>
					<dim>1</dim>
					<dim>5</dim>
					<dim>5</dim>
				</port>
			</output>
		</layer>
		<layer id="120" name="Multiply_7281" type="GroupConvolution" version="opset1">
			<data strides="1, 1" pads_begin="2, 2" pads_end="2, 2" dilations="1, 1" auto_pad="explicit" />
			<input>
				<port id="0" precision="FP32">
					<dim>-1</dim>
					<dim>64</dim>
					<dim>-1</dim>
					<dim>-1</dim>
				</port>
				<port id="1" precision="FP32">
					<dim>64</dim>
					<dim>1</dim>
					<dim>1</dim>
					<dim>5</dim>
					<dim>5</dim>
				</port>
			</input>
			<output>
				<port id="2" precision="FP32" names="p2o.pd_op.depthwise_conv2d.5.0">
					<dim>-1</dim>
					<dim>64</dim>
					<dim>-1</dim>
					<dim>-1</dim>
				</port>
			</output>
		</layer>
		<layer id="121" name="Constant_7286_compressed" type="Const" version="opset1">
			<data element_type="f16" shape="1, 64, 1, 1" offset="28096" size="128" />
			<output>
				<port id="0" precision="FP16">
					<dim>1</dim>
					<dim>64</dim>
					<dim>1</dim>
					<dim>1</dim>
				</port>
			</output>
		</layer>
		<layer id="122" name="Constant_7286" type="Convert" version="opset1">
			<data destination_type="f32" />
			<rt_info>
				<attribute name="decompression" version="0" />
			</rt_info>
			<input>
				<port id="0" precision="FP16">
					<dim>1</dim>
					<dim>64</dim>
					<dim>1</dim>
					<dim>1</dim>
				</port>
			</input>
			<output>
				<port id="1" precision="FP32">
					<dim>1</dim>
					<dim>64</dim>
					<dim>1</dim>
					<dim>1</dim>
				</port>
			</output>
		</layer>
		<layer id="123" name="BatchNormalization.17" type="Add" version="opset1">
			<data auto_broadcast="numpy" />
			<input>
				<port id="0" precision="FP32">
					<dim>-1</dim>
					<dim>64</dim>
					<dim>-1</dim>
					<dim>-1</dim>
				</port>
				<port id="1" precision="FP32">
					<dim>1</dim>
					<dim>64</dim>
					<dim>1</dim>
					<dim>1</dim>
				</port>
			</input>
			<output>
				<port id="2" precision="FP32" names="p2o.pd_op.batch_norm_.17.0">
					<dim>-1</dim>
					<dim>64</dim>
					<dim>-1</dim>
					<dim>-1</dim>
				</port>
			</output>
		</layer>
		<layer id="124" name="Relu.11" type="ReLU" version="opset1">
			<input>
				<port id="0" precision="FP32">
					<dim>-1</dim>
					<dim>64</dim>
					<dim>-1</dim>
					<dim>-1</dim>
				</port>
			</input>
			<output>
				<port id="1" precision="FP32" names="p2o.pd_op.relu.11.0">
					<dim>-1</dim>
					<dim>64</dim>
					<dim>-1</dim>
					<dim>-1</dim>
				</port>
			</output>
		</layer>
		<layer id="125" name="Multiply_7576_compressed" type="Const" version="opset1">
			<data element_type="f16" shape="24, 64, 1, 1" offset="28224" size="3072" />
			<output>
				<port id="0" precision="FP16">
					<dim>24</dim>
					<dim>64</dim>
					<dim>1</dim>
					<dim>1</dim>
				</port>
			</output>
		</layer>
		<layer id="126" name="Multiply_7576" type="Convert" version="opset1">
			<data destination_type="f32" />
			<rt_info>
				<attribute name="decompression" version="0" />
			</rt_info>
			<input>
				<port id="0" precision="FP16">
					<dim>24</dim>
					<dim>64</dim>
					<dim>1</dim>
					<dim>1</dim>
				</port>
			</input>
			<output>
				<port id="1" precision="FP32">
					<dim>24</dim>
					<dim>64</dim>
					<dim>1</dim>
					<dim>1</dim>
				</port>
			</output>
		</layer>
		<layer id="127" name="Multiply_7288" type="Convolution" version="opset1">
			<data strides="1, 1" dilations="1, 1" pads_begin="0, 0" pads_end="0, 0" auto_pad="explicit" />
			<input>
				<port id="0" precision="FP32">
					<dim>-1</dim>
					<dim>64</dim>
					<dim>-1</dim>
					<dim>-1</dim>
				</port>
				<port id="1" precision="FP32">
					<dim>24</dim>
					<dim>64</dim>
					<dim>1</dim>
					<dim>1</dim>
				</port>
			</input>
			<output>
				<port id="2" precision="FP32">
					<dim>-1</dim>
					<dim>24</dim>
					<dim>-1</dim>
					<dim>-1</dim>
				</port>
			</output>
		</layer>
		<layer id="128" name="Constant_7293_compressed" type="Const" version="opset1">
			<data element_type="f16" shape="1, 24, 1, 1" offset="31296" size="48" />
			<output>
				<port id="0" precision="FP16">
					<dim>1</dim>
					<dim>24</dim>
					<dim>1</dim>
					<dim>1</dim>
				</port>
			</output>
		</layer>
		<layer id="129" name="Constant_7293" type="Convert" version="opset1">
			<data destination_type="f32" />
			<rt_info>
				<attribute name="decompression" version="0" />
			</rt_info>
			<input>
				<port id="0" precision="FP16">
					<dim>1</dim>
					<dim>24</dim>
					<dim>1</dim>
					<dim>1</dim>
				</port>
			</input>
			<output>
				<port id="1" precision="FP32">
					<dim>1</dim>
					<dim>24</dim>
					<dim>1</dim>
					<dim>1</dim>
				</port>
			</output>
		</layer>
		<layer id="130" name="BatchNormalization.18" type="Add" version="opset1">
			<data auto_broadcast="numpy" />
			<input>
				<port id="0" precision="FP32">
					<dim>-1</dim>
					<dim>24</dim>
					<dim>-1</dim>
					<dim>-1</dim>
				</port>
				<port id="1" precision="FP32">
					<dim>1</dim>
					<dim>24</dim>
					<dim>1</dim>
					<dim>1</dim>
				</port>
			</input>
			<output>
				<port id="2" precision="FP32" names="p2o.pd_op.batch_norm_.18.0">
					<dim>-1</dim>
					<dim>24</dim>
					<dim>-1</dim>
					<dim>-1</dim>
				</port>
			</output>
		</layer>
		<layer id="131" name="Add.6" type="Add" version="opset1">
			<data auto_broadcast="numpy" />
			<input>
				<port id="0" precision="FP32">
					<dim>-1</dim>
					<dim>24</dim>
					<dim>-1</dim>
					<dim>-1</dim>
				</port>
				<port id="1" precision="FP32">
					<dim>-1</dim>
					<dim>24</dim>
					<dim>-1</dim>
					<dim>-1</dim>
				</port>
			</input>
			<output>
				<port id="2" precision="FP32" names="Add.7">
					<dim>-1</dim>
					<dim>24</dim>
					<dim>-1</dim>
					<dim>-1</dim>
				</port>
			</output>
		</layer>
		<layer id="132" name="Multiply_7580_compressed" type="Const" version="opset1">
			<data element_type="f16" shape="120, 24, 1, 1" offset="31344" size="5760" />
			<output>
				<port id="0" precision="FP16">
					<dim>120</dim>
					<dim>24</dim>
					<dim>1</dim>
					<dim>1</dim>
				</port>
			</output>
		</layer>
		<layer id="133" name="Multiply_7580" type="Convert" version="opset1">
			<data destination_type="f32" />
			<rt_info>
				<attribute name="decompression" version="0" />
			</rt_info>
			<input>
				<port id="0" precision="FP16">
					<dim>120</dim>
					<dim>24</dim>
					<dim>1</dim>
					<dim>1</dim>
				</port>
			</input>
			<output>
				<port id="1" precision="FP32">
					<dim>120</dim>
					<dim>24</dim>
					<dim>1</dim>
					<dim>1</dim>
				</port>
			</output>
		</layer>
		<layer id="134" name="Multiply_7295" type="Convolution" version="opset1">
			<data strides="1, 1" dilations="1, 1" pads_begin="0, 0" pads_end="0, 0" auto_pad="explicit" />
			<input>
				<port id="0" precision="FP32">
					<dim>-1</dim>
					<dim>24</dim>
					<dim>-1</dim>
					<dim>-1</dim>
				</port>
				<port id="1" precision="FP32">
					<dim>120</dim>
					<dim>24</dim>
					<dim>1</dim>
					<dim>1</dim>
				</port>
			</input>
			<output>
				<port id="2" precision="FP32">
					<dim>-1</dim>
					<dim>120</dim>
					<dim>-1</dim>
					<dim>-1</dim>
				</port>
			</output>
		</layer>
		<layer id="135" name="Constant_7300_compressed" type="Const" version="opset1">
			<data element_type="f16" shape="1, 120, 1, 1" offset="37104" size="240" />
			<output>
				<port id="0" precision="FP16">
					<dim>1</dim>
					<dim>120</dim>
					<dim>1</dim>
					<dim>1</dim>
				</port>
			</output>
		</layer>
		<layer id="136" name="Constant_7300" type="Convert" version="opset1">
			<data destination_type="f32" />
			<rt_info>
				<attribute name="decompression" version="0" />
			</rt_info>
			<input>
				<port id="0" precision="FP16">
					<dim>1</dim>
					<dim>120</dim>
					<dim>1</dim>
					<dim>1</dim>
				</port>
			</input>
			<output>
				<port id="1" precision="FP32">
					<dim>1</dim>
					<dim>120</dim>
					<dim>1</dim>
					<dim>1</dim>
				</port>
			</output>
		</layer>
		<layer id="137" name="BatchNormalization.19" type="Add" version="opset1">
			<data auto_broadcast="numpy" />
			<input>
				<port id="0" precision="FP32">
					<dim>-1</dim>
					<dim>120</dim>
					<dim>-1</dim>
					<dim>-1</dim>
				</port>
				<port id="1" precision="FP32">
					<dim>1</dim>
					<dim>120</dim>
					<dim>1</dim>
					<dim>1</dim>
				</port>
			</input>
			<output>
				<port id="2" precision="FP32" names="p2o.pd_op.batch_norm_.19.0">
					<dim>-1</dim>
					<dim>120</dim>
					<dim>-1</dim>
					<dim>-1</dim>
				</port>
			</output>
		</layer>
		<layer id="138" name="HardSwish.1" type="HSwish" version="opset4">
			<input>
				<port id="0" precision="FP32">
					<dim>-1</dim>
					<dim>120</dim>
					<dim>-1</dim>
					<dim>-1</dim>
				</port>
			</input>
			<output>
				<port id="1" precision="FP32" names="p2o.pd_op.hardswish.1.0">
					<dim>-1</dim>
					<dim>120</dim>
					<dim>-1</dim>
					<dim>-1</dim>
				</port>
			</output>
		</layer>
		<layer id="139" name="Multiply_7584_compressed" type="Const" version="opset1">
			<data element_type="f16" shape="120, 1, 1, 3, 3" offset="37344" size="2160" />
			<output>
				<port id="0" precision="FP16">
					<dim>120</dim>
					<dim>1</dim>
					<dim>1</dim>
					<dim>3</dim>
					<dim>3</dim>
				</port>
			</output>
		</layer>
		<layer id="140" name="Multiply_7584" type="Convert" version="opset1">
			<data destination_type="f32" />
			<rt_info>
				<attribute name="decompression" version="0" />
			</rt_info>
			<input>
				<port id="0" precision="FP16">
					<dim>120</dim>
					<dim>1</dim>
					<dim>1</dim>
					<dim>3</dim>
					<dim>3</dim>
				</port>
			</input>
			<output>
				<port id="1" precision="FP32">
					<dim>120</dim>
					<dim>1</dim>
					<dim>1</dim>
					<dim>3</dim>
					<dim>3</dim>
				</port>
			</output>
		</layer>
		<layer id="141" name="Multiply_7302" type="GroupConvolution" version="opset1">
			<data strides="2, 2" pads_begin="1, 1" pads_end="1, 1" dilations="1, 1" auto_pad="explicit" />
			<input>
				<port id="0" precision="FP32">
					<dim>-1</dim>
					<dim>120</dim>
					<dim>-1</dim>
					<dim>-1</dim>
				</port>
				<port id="1" precision="FP32">
					<dim>120</dim>
					<dim>1</dim>
					<dim>1</dim>
					<dim>3</dim>
					<dim>3</dim>
				</port>
			</input>
			<output>
				<port id="2" precision="FP32" names="p2o.pd_op.depthwise_conv2d.6.0">
					<dim>-1</dim>
					<dim>120</dim>
					<dim>-1</dim>
					<dim>-1</dim>
				</port>
			</output>
		</layer>
		<layer id="142" name="Constant_7307_compressed" type="Const" version="opset1">
			<data element_type="f16" shape="1, 120, 1, 1" offset="39504" size="240" />
			<output>
				<port id="0" precision="FP16">
					<dim>1</dim>
					<dim>120</dim>
					<dim>1</dim>
					<dim>1</dim>
				</port>
			</output>
		</layer>
		<layer id="143" name="Constant_7307" type="Convert" version="opset1">
			<data destination_type="f32" />
			<rt_info>
				<attribute name="decompression" version="0" />
			</rt_info>
			<input>
				<port id="0" precision="FP16">
					<dim>1</dim>
					<dim>120</dim>
					<dim>1</dim>
					<dim>1</dim>
				</port>
			</input>
			<output>
				<port id="1" precision="FP32">
					<dim>1</dim>
					<dim>120</dim>
					<dim>1</dim>
					<dim>1</dim>
				</port>
			</output>
		</layer>
		<layer id="144" name="BatchNormalization.20" type="Add" version="opset1">
			<data auto_broadcast="numpy" />
			<input>
				<port id="0" precision="FP32">
					<dim>-1</dim>
					<dim>120</dim>
					<dim>-1</dim>
					<dim>-1</dim>
				</port>
				<port id="1" precision="FP32">
					<dim>1</dim>
					<dim>120</dim>
					<dim>1</dim>
					<dim>1</dim>
				</port>
			</input>
			<output>
				<port id="2" precision="FP32" names="p2o.pd_op.batch_norm_.20.0">
					<dim>-1</dim>
					<dim>120</dim>
					<dim>-1</dim>
					<dim>-1</dim>
				</port>
			</output>
		</layer>
		<layer id="145" name="HardSwish.2" type="HSwish" version="opset4">
			<input>
				<port id="0" precision="FP32">
					<dim>-1</dim>
					<dim>120</dim>
					<dim>-1</dim>
					<dim>-1</dim>
				</port>
			</input>
			<output>
				<port id="1" precision="FP32" names="p2o.pd_op.hardswish.2.0">
					<dim>-1</dim>
					<dim>120</dim>
					<dim>-1</dim>
					<dim>-1</dim>
				</port>
			</output>
		</layer>
		<layer id="146" name="Multiply_7587_compressed" type="Const" version="opset1">
			<data element_type="f16" shape="40, 120, 1, 1" offset="39744" size="9600" />
			<output>
				<port id="0" precision="FP16">
					<dim>40</dim>
					<dim>120</dim>
					<dim>1</dim>
					<dim>1</dim>
				</port>
			</output>
		</layer>
		<layer id="147" name="Multiply_7587" type="Convert" version="opset1">
			<data destination_type="f32" />
			<rt_info>
				<attribute name="decompression" version="0" />
			</rt_info>
			<input>
				<port id="0" precision="FP16">
					<dim>40</dim>
					<dim>120</dim>
					<dim>1</dim>
					<dim>1</dim>
				</port>
			</input>
			<output>
				<port id="1" precision="FP32">
					<dim>40</dim>
					<dim>120</dim>
					<dim>1</dim>
					<dim>1</dim>
				</port>
			</output>
		</layer>
		<layer id="148" name="Multiply_7309" type="Convolution" version="opset1">
			<data strides="1, 1" dilations="1, 1" pads_begin="0, 0" pads_end="0, 0" auto_pad="explicit" />
			<input>
				<port id="0" precision="FP32">
					<dim>-1</dim>
					<dim>120</dim>
					<dim>-1</dim>
					<dim>-1</dim>
				</port>
				<port id="1" precision="FP32">
					<dim>40</dim>
					<dim>120</dim>
					<dim>1</dim>
					<dim>1</dim>
				</port>
			</input>
			<output>
				<port id="2" precision="FP32">
					<dim>-1</dim>
					<dim>40</dim>
					<dim>-1</dim>
					<dim>-1</dim>
				</port>
			</output>
		</layer>
		<layer id="149" name="Constant_7314_compressed" type="Const" version="opset1">
			<data element_type="f16" shape="1, 40, 1, 1" offset="49344" size="80" />
			<output>
				<port id="0" precision="FP16">
					<dim>1</dim>
					<dim>40</dim>
					<dim>1</dim>
					<dim>1</dim>
				</port>
			</output>
		</layer>
		<layer id="150" name="Constant_7314" type="Convert" version="opset1">
			<data destination_type="f32" />
			<rt_info>
				<attribute name="decompression" version="0" />
			</rt_info>
			<input>
				<port id="0" precision="FP16">
					<dim>1</dim>
					<dim>40</dim>
					<dim>1</dim>
					<dim>1</dim>
				</port>
			</input>
			<output>
				<port id="1" precision="FP32">
					<dim>1</dim>
					<dim>40</dim>
					<dim>1</dim>
					<dim>1</dim>
				</port>
			</output>
		</layer>
		<layer id="151" name="BatchNormalization.21" type="Add" version="opset1">
			<data auto_broadcast="numpy" />
			<input>
				<port id="0" precision="FP32">
					<dim>-1</dim>
					<dim>40</dim>
					<dim>-1</dim>
					<dim>-1</dim>
				</port>
				<port id="1" precision="FP32">
					<dim>1</dim>
					<dim>40</dim>
					<dim>1</dim>
					<dim>1</dim>
				</port>
			</input>
			<output>
				<port id="2" precision="FP32" names="p2o.pd_op.batch_norm_.21.0">
					<dim>-1</dim>
					<dim>40</dim>
					<dim>-1</dim>
					<dim>-1</dim>
				</port>
			</output>
		</layer>
		<layer id="152" name="Multiply_7591_compressed" type="Const" version="opset1">
			<data element_type="f16" shape="104, 40, 1, 1" offset="49424" size="8320" />
			<output>
				<port id="0" precision="FP16">
					<dim>104</dim>
					<dim>40</dim>
					<dim>1</dim>
					<dim>1</dim>
				</port>
			</output>
		</layer>
		<layer id="153" name="Multiply_7591" type="Convert" version="opset1">
			<data destination_type="f32" />
			<rt_info>
				<attribute name="decompression" version="0" />
			</rt_info>
			<input>
				<port id="0" precision="FP16">
					<dim>104</dim>
					<dim>40</dim>
					<dim>1</dim>
					<dim>1</dim>
				</port>
			</input>
			<output>
				<port id="1" precision="FP32">
					<dim>104</dim>
					<dim>40</dim>
					<dim>1</dim>
					<dim>1</dim>
				</port>
			</output>
		</layer>
		<layer id="154" name="Multiply_7316" type="Convolution" version="opset1">
			<data strides="1, 1" dilations="1, 1" pads_begin="0, 0" pads_end="0, 0" auto_pad="explicit" />
			<input>
				<port id="0" precision="FP32">
					<dim>-1</dim>
					<dim>40</dim>
					<dim>-1</dim>
					<dim>-1</dim>
				</port>
				<port id="1" precision="FP32">
					<dim>104</dim>
					<dim>40</dim>
					<dim>1</dim>
					<dim>1</dim>
				</port>
			</input>
			<output>
				<port id="2" precision="FP32">
					<dim>-1</dim>
					<dim>104</dim>
					<dim>-1</dim>
					<dim>-1</dim>
				</port>
			</output>
		</layer>
		<layer id="155" name="Constant_7321_compressed" type="Const" version="opset1">
			<data element_type="f16" shape="1, 104, 1, 1" offset="57744" size="208" />
			<output>
				<port id="0" precision="FP16">
					<dim>1</dim>
					<dim>104</dim>
					<dim>1</dim>
					<dim>1</dim>
				</port>
			</output>
		</layer>
		<layer id="156" name="Constant_7321" type="Convert" version="opset1">
			<data destination_type="f32" />
			<rt_info>
				<attribute name="decompression" version="0" />
			</rt_info>
			<input>
				<port id="0" precision="FP16">
					<dim>1</dim>
					<dim>104</dim>
					<dim>1</dim>
					<dim>1</dim>
				</port>
			</input>
			<output>
				<port id="1" precision="FP32">
					<dim>1</dim>
					<dim>104</dim>
					<dim>1</dim>
					<dim>1</dim>
				</port>
			</output>
		</layer>
		<layer id="157" name="BatchNormalization.22" type="Add" version="opset1">
			<data auto_broadcast="numpy" />
			<input>
				<port id="0" precision="FP32">
					<dim>-1</dim>
					<dim>104</dim>
					<dim>-1</dim>
					<dim>-1</dim>
				</port>
				<port id="1" precision="FP32">
					<dim>1</dim>
					<dim>104</dim>
					<dim>1</dim>
					<dim>1</dim>
				</port>
			</input>
			<output>
				<port id="2" precision="FP32" names="p2o.pd_op.batch_norm_.22.0">
					<dim>-1</dim>
					<dim>104</dim>
					<dim>-1</dim>
					<dim>-1</dim>
				</port>
			</output>
		</layer>
		<layer id="158" name="HardSwish.3" type="HSwish" version="opset4">
			<input>
				<port id="0" precision="FP32">
					<dim>-1</dim>
					<dim>104</dim>
					<dim>-1</dim>
					<dim>-1</dim>
				</port>
			</input>
			<output>
				<port id="1" precision="FP32" names="p2o.pd_op.hardswish.3.0">
					<dim>-1</dim>
					<dim>104</dim>
					<dim>-1</dim>
					<dim>-1</dim>
				</port>
			</output>
		</layer>
		<layer id="159" name="Multiply_7595_compressed" type="Const" version="opset1">
			<data element_type="f16" shape="104, 1, 1, 3, 3" offset="57952" size="1872" />
			<output>
				<port id="0" precision="FP16">
					<dim>104</dim>
					<dim>1</dim>
					<dim>1</dim>
					<dim>3</dim>
					<dim>3</dim>
				</port>
			</output>
		</layer>
		<layer id="160" name="Multiply_7595" type="Convert" version="opset1">
			<data destination_type="f32" />
			<rt_info>
				<attribute name="decompression" version="0" />
			</rt_info>
			<input>
				<port id="0" precision="FP16">
					<dim>104</dim>
					<dim>1</dim>
					<dim>1</dim>
					<dim>3</dim>
					<dim>3</dim>
				</port>
			</input>
			<output>
				<port id="1" precision="FP32">
					<dim>104</dim>
					<dim>1</dim>
					<dim>1</dim>
					<dim>3</dim>
					<dim>3</dim>
				</port>
			</output>
		</layer>
		<layer id="161" name="Multiply_7323" type="GroupConvolution" version="opset1">
			<data strides="1, 1" pads_begin="1, 1" pads_end="1, 1" dilations="1, 1" auto_pad="explicit" />
			<input>
				<port id="0" precision="FP32">
					<dim>-1</dim>
					<dim>104</dim>
					<dim>-1</dim>
					<dim>-1</dim>
				</port>
				<port id="1" precision="FP32">
					<dim>104</dim>
					<dim>1</dim>
					<dim>1</dim>
					<dim>3</dim>
					<dim>3</dim>
				</port>
			</input>
			<output>
				<port id="2" precision="FP32" names="p2o.pd_op.depthwise_conv2d.7.0">
					<dim>-1</dim>
					<dim>104</dim>
					<dim>-1</dim>
					<dim>-1</dim>
				</port>
			</output>
		</layer>
		<layer id="162" name="Constant_7328_compressed" type="Const" version="opset1">
			<data element_type="f16" shape="1, 104, 1, 1" offset="59824" size="208" />
			<output>
				<port id="0" precision="FP16">
					<dim>1</dim>
					<dim>104</dim>
					<dim>1</dim>
					<dim>1</dim>
				</port>
			</output>
		</layer>
		<layer id="163" name="Constant_7328" type="Convert" version="opset1">
			<data destination_type="f32" />
			<rt_info>
				<attribute name="decompression" version="0" />
			</rt_info>
			<input>
				<port id="0" precision="FP16">
					<dim>1</dim>
					<dim>104</dim>
					<dim>1</dim>
					<dim>1</dim>
				</port>
			</input>
			<output>
				<port id="1" precision="FP32">
					<dim>1</dim>
					<dim>104</dim>
					<dim>1</dim>
					<dim>1</dim>
				</port>
			</output>
		</layer>
		<layer id="164" name="BatchNormalization.23" type="Add" version="opset1">
			<data auto_broadcast="numpy" />
			<input>
				<port id="0" precision="FP32">
					<dim>-1</dim>
					<dim>104</dim>
					<dim>-1</dim>
					<dim>-1</dim>
				</port>
				<port id="1" precision="FP32">
					<dim>1</dim>
					<dim>104</dim>
					<dim>1</dim>
					<dim>1</dim>
				</port>
			</input>
			<output>
				<port id="2" precision="FP32" names="p2o.pd_op.batch_norm_.23.0">
					<dim>-1</dim>
					<dim>104</dim>
					<dim>-1</dim>
					<dim>-1</dim>
				</port>
			</output>
		</layer>
		<layer id="165" name="HardSwish.4" type="HSwish" version="opset4">
			<input>
				<port id="0" precision="FP32">
					<dim>-1</dim>
					<dim>104</dim>
					<dim>-1</dim>
					<dim>-1</dim>
				</port>
			</input>
			<output>
				<port id="1" precision="FP32" names="p2o.pd_op.hardswish.4.0">
					<dim>-1</dim>
					<dim>104</dim>
					<dim>-1</dim>
					<dim>-1</dim>
				</port>
			</output>
		</layer>
		<layer id="166" name="Multiply_7598_compressed" type="Const" version="opset1">
			<data element_type="f16" shape="40, 104, 1, 1" offset="60032" size="8320" />
			<output>
				<port id="0" precision="FP16">
					<dim>40</dim>
					<dim>104</dim>
					<dim>1</dim>
					<dim>1</dim>
				</port>
			</output>
		</layer>
		<layer id="167" name="Multiply_7598" type="Convert" version="opset1">
			<data destination_type="f32" />
			<rt_info>
				<attribute name="decompression" version="0" />
			</rt_info>
			<input>
				<port id="0" precision="FP16">
					<dim>40</dim>
					<dim>104</dim>
					<dim>1</dim>
					<dim>1</dim>
				</port>
			</input>
			<output>
				<port id="1" precision="FP32">
					<dim>40</dim>
					<dim>104</dim>
					<dim>1</dim>
					<dim>1</dim>
				</port>
			</output>
		</layer>
		<layer id="168" name="Multiply_7330" type="Convolution" version="opset1">
			<data strides="1, 1" dilations="1, 1" pads_begin="0, 0" pads_end="0, 0" auto_pad="explicit" />
			<input>
				<port id="0" precision="FP32">
					<dim>-1</dim>
					<dim>104</dim>
					<dim>-1</dim>
					<dim>-1</dim>
				</port>
				<port id="1" precision="FP32">
					<dim>40</dim>
					<dim>104</dim>
					<dim>1</dim>
					<dim>1</dim>
				</port>
			</input>
			<output>
				<port id="2" precision="FP32">
					<dim>-1</dim>
					<dim>40</dim>
					<dim>-1</dim>
					<dim>-1</dim>
				</port>
			</output>
		</layer>
		<layer id="169" name="Constant_7335_compressed" type="Const" version="opset1">
			<data element_type="f16" shape="1, 40, 1, 1" offset="68352" size="80" />
			<output>
				<port id="0" precision="FP16">
					<dim>1</dim>
					<dim>40</dim>
					<dim>1</dim>
					<dim>1</dim>
				</port>
			</output>
		</layer>
		<layer id="170" name="Constant_7335" type="Convert" version="opset1">
			<data destination_type="f32" />
			<rt_info>
				<attribute name="decompression" version="0" />
			</rt_info>
			<input>
				<port id="0" precision="FP16">
					<dim>1</dim>
					<dim>40</dim>
					<dim>1</dim>
					<dim>1</dim>
				</port>
			</input>
			<output>
				<port id="1" precision="FP32">
					<dim>1</dim>
					<dim>40</dim>
					<dim>1</dim>
					<dim>1</dim>
				</port>
			</output>
		</layer>
		<layer id="171" name="BatchNormalization.24" type="Add" version="opset1">
			<data auto_broadcast="numpy" />
			<input>
				<port id="0" precision="FP32">
					<dim>-1</dim>
					<dim>40</dim>
					<dim>-1</dim>
					<dim>-1</dim>
				</port>
				<port id="1" precision="FP32">
					<dim>1</dim>
					<dim>40</dim>
					<dim>1</dim>
					<dim>1</dim>
				</port>
			</input>
			<output>
				<port id="2" precision="FP32" names="p2o.pd_op.batch_norm_.24.0">
					<dim>-1</dim>
					<dim>40</dim>
					<dim>-1</dim>
					<dim>-1</dim>
				</port>
			</output>
		</layer>
		<layer id="172" name="Add.8" type="Add" version="opset1">
			<data auto_broadcast="numpy" />
			<input>
				<port id="0" precision="FP32">
					<dim>-1</dim>
					<dim>40</dim>
					<dim>-1</dim>
					<dim>-1</dim>
				</port>
				<port id="1" precision="FP32">
					<dim>-1</dim>
					<dim>40</dim>
					<dim>-1</dim>
					<dim>-1</dim>
				</port>
			</input>
			<output>
				<port id="2" precision="FP32" names="Add.9">
					<dim>-1</dim>
					<dim>40</dim>
					<dim>-1</dim>
					<dim>-1</dim>
				</port>
			</output>
		</layer>
		<layer id="173" name="Multiply_7602_compressed" type="Const" version="opset1">
			<data element_type="f16" shape="96, 40, 1, 1" offset="68432" size="7680" />
			<output>
				<port id="0" precision="FP16">
					<dim>96</dim>
					<dim>40</dim>
					<dim>1</dim>
					<dim>1</dim>
				</port>
			</output>
		</layer>
		<layer id="174" name="Multiply_7602" type="Convert" version="opset1">
			<data destination_type="f32" />
			<rt_info>
				<attribute name="decompression" version="0" />
			</rt_info>
			<input>
				<port id="0" precision="FP16">
					<dim>96</dim>
					<dim>40</dim>
					<dim>1</dim>
					<dim>1</dim>
				</port>
			</input>
			<output>
				<port id="1" precision="FP32">
					<dim>96</dim>
					<dim>40</dim>
					<dim>1</dim>
					<dim>1</dim>
				</port>
			</output>
		</layer>
		<layer id="175" name="Multiply_7337" type="Convolution" version="opset1">
			<data strides="1, 1" dilations="1, 1" pads_begin="0, 0" pads_end="0, 0" auto_pad="explicit" />
			<input>
				<port id="0" precision="FP32">
					<dim>-1</dim>
					<dim>40</dim>
					<dim>-1</dim>
					<dim>-1</dim>
				</port>
				<port id="1" precision="FP32">
					<dim>96</dim>
					<dim>40</dim>
					<dim>1</dim>
					<dim>1</dim>
				</port>
			</input>
			<output>
				<port id="2" precision="FP32">
					<dim>-1</dim>
					<dim>96</dim>
					<dim>-1</dim>
					<dim>-1</dim>
				</port>
			</output>
		</layer>
		<layer id="176" name="Constant_7342_compressed" type="Const" version="opset1">
			<data element_type="f16" shape="1, 96, 1, 1" offset="76112" size="192" />
			<output>
				<port id="0" precision="FP16">
					<dim>1</dim>
					<dim>96</dim>
					<dim>1</dim>
					<dim>1</dim>
				</port>
			</output>
		</layer>
		<layer id="177" name="Constant_7342" type="Convert" version="opset1">
			<data destination_type="f32" />
			<rt_info>
				<attribute name="decompression" version="0" />
			</rt_info>
			<input>
				<port id="0" precision="FP16">
					<dim>1</dim>
					<dim>96</dim>
					<dim>1</dim>
					<dim>1</dim>
				</port>
			</input>
			<output>
				<port id="1" precision="FP32">
					<dim>1</dim>
					<dim>96</dim>
					<dim>1</dim>
					<dim>1</dim>
				</port>
			</output>
		</layer>
		<layer id="178" name="BatchNormalization.25" type="Add" version="opset1">
			<data auto_broadcast="numpy" />
			<input>
				<port id="0" precision="FP32">
					<dim>-1</dim>
					<dim>96</dim>
					<dim>-1</dim>
					<dim>-1</dim>
				</port>
				<port id="1" precision="FP32">
					<dim>1</dim>
					<dim>96</dim>
					<dim>1</dim>
					<dim>1</dim>
				</port>
			</input>
			<output>
				<port id="2" precision="FP32" names="p2o.pd_op.batch_norm_.25.0">
					<dim>-1</dim>
					<dim>96</dim>
					<dim>-1</dim>
					<dim>-1</dim>
				</port>
			</output>
		</layer>
		<layer id="179" name="HardSwish.5" type="HSwish" version="opset4">
			<input>
				<port id="0" precision="FP32">
					<dim>-1</dim>
					<dim>96</dim>
					<dim>-1</dim>
					<dim>-1</dim>
				</port>
			</input>
			<output>
				<port id="1" precision="FP32" names="p2o.pd_op.hardswish.5.0">
					<dim>-1</dim>
					<dim>96</dim>
					<dim>-1</dim>
					<dim>-1</dim>
				</port>
			</output>
		</layer>
		<layer id="180" name="Multiply_7606_compressed" type="Const" version="opset1">
			<data element_type="f16" shape="96, 1, 1, 3, 3" offset="76304" size="1728" />
			<output>
				<port id="0" precision="FP16">
					<dim>96</dim>
					<dim>1</dim>
					<dim>1</dim>
					<dim>3</dim>
					<dim>3</dim>
				</port>
			</output>
		</layer>
		<layer id="181" name="Multiply_7606" type="Convert" version="opset1">
			<data destination_type="f32" />
			<rt_info>
				<attribute name="decompression" version="0" />
			</rt_info>
			<input>
				<port id="0" precision="FP16">
					<dim>96</dim>
					<dim>1</dim>
					<dim>1</dim>
					<dim>3</dim>
					<dim>3</dim>
				</port>
			</input>
			<output>
				<port id="1" precision="FP32">
					<dim>96</dim>
					<dim>1</dim>
					<dim>1</dim>
					<dim>3</dim>
					<dim>3</dim>
				</port>
			</output>
		</layer>
		<layer id="182" name="Multiply_7344" type="GroupConvolution" version="opset1">
			<data strides="1, 1" pads_begin="1, 1" pads_end="1, 1" dilations="1, 1" auto_pad="explicit" />
			<input>
				<port id="0" precision="FP32">
					<dim>-1</dim>
					<dim>96</dim>
					<dim>-1</dim>
					<dim>-1</dim>
				</port>
				<port id="1" precision="FP32">
					<dim>96</dim>
					<dim>1</dim>
					<dim>1</dim>
					<dim>3</dim>
					<dim>3</dim>
				</port>
			</input>
			<output>
				<port id="2" precision="FP32" names="p2o.pd_op.depthwise_conv2d.8.0">
					<dim>-1</dim>
					<dim>96</dim>
					<dim>-1</dim>
					<dim>-1</dim>
				</port>
			</output>
		</layer>
		<layer id="183" name="Constant_7349_compressed" type="Const" version="opset1">
			<data element_type="f16" shape="1, 96, 1, 1" offset="78032" size="192" />
			<output>
				<port id="0" precision="FP16">
					<dim>1</dim>
					<dim>96</dim>
					<dim>1</dim>
					<dim>1</dim>
				</port>
			</output>
		</layer>
		<layer id="184" name="Constant_7349" type="Convert" version="opset1">
			<data destination_type="f32" />
			<rt_info>
				<attribute name="decompression" version="0" />
			</rt_info>
			<input>
				<port id="0" precision="FP16">
					<dim>1</dim>
					<dim>96</dim>
					<dim>1</dim>
					<dim>1</dim>
				</port>
			</input>
			<output>
				<port id="1" precision="FP32">
					<dim>1</dim>
					<dim>96</dim>
					<dim>1</dim>
					<dim>1</dim>
				</port>
			</output>
		</layer>
		<layer id="185" name="BatchNormalization.26" type="Add" version="opset1">
			<data auto_broadcast="numpy" />
			<input>
				<port id="0" precision="FP32">
					<dim>-1</dim>
					<dim>96</dim>
					<dim>-1</dim>
					<dim>-1</dim>
				</port>
				<port id="1" precision="FP32">
					<dim>1</dim>
					<dim>96</dim>
					<dim>1</dim>
					<dim>1</dim>
				</port>
			</input>
			<output>
				<port id="2" precision="FP32" names="p2o.pd_op.batch_norm_.26.0">
					<dim>-1</dim>
					<dim>96</dim>
					<dim>-1</dim>
					<dim>-1</dim>
				</port>
			</output>
		</layer>
		<layer id="186" name="HardSwish.6" type="HSwish" version="opset4">
			<input>
				<port id="0" precision="FP32">
					<dim>-1</dim>
					<dim>96</dim>
					<dim>-1</dim>
					<dim>-1</dim>
				</port>
			</input>
			<output>
				<port id="1" precision="FP32" names="p2o.pd_op.hardswish.6.0">
					<dim>-1</dim>
					<dim>96</dim>
					<dim>-1</dim>
					<dim>-1</dim>
				</port>
			</output>
		</layer>
		<layer id="187" name="Multiply_7609_compressed" type="Const" version="opset1">
			<data element_type="f16" shape="40, 96, 1, 1" offset="78224" size="7680" />
			<output>
				<port id="0" precision="FP16">
					<dim>40</dim>
					<dim>96</dim>
					<dim>1</dim>
					<dim>1</dim>
				</port>
			</output>
		</layer>
		<layer id="188" name="Multiply_7609" type="Convert" version="opset1">
			<data destination_type="f32" />
			<rt_info>
				<attribute name="decompression" version="0" />
			</rt_info>
			<input>
				<port id="0" precision="FP16">
					<dim>40</dim>
					<dim>96</dim>
					<dim>1</dim>
					<dim>1</dim>
				</port>
			</input>
			<output>
				<port id="1" precision="FP32">
					<dim>40</dim>
					<dim>96</dim>
					<dim>1</dim>
					<dim>1</dim>
				</port>
			</output>
		</layer>
		<layer id="189" name="Multiply_7351" type="Convolution" version="opset1">
			<data strides="1, 1" dilations="1, 1" pads_begin="0, 0" pads_end="0, 0" auto_pad="explicit" />
			<input>
				<port id="0" precision="FP32">
					<dim>-1</dim>
					<dim>96</dim>
					<dim>-1</dim>
					<dim>-1</dim>
				</port>
				<port id="1" precision="FP32">
					<dim>40</dim>
					<dim>96</dim>
					<dim>1</dim>
					<dim>1</dim>
				</port>
			</input>
			<output>
				<port id="2" precision="FP32">
					<dim>-1</dim>
					<dim>40</dim>
					<dim>-1</dim>
					<dim>-1</dim>
				</port>
			</output>
		</layer>
		<layer id="190" name="Constant_7356_compressed" type="Const" version="opset1">
			<data element_type="f16" shape="1, 40, 1, 1" offset="85904" size="80" />
			<output>
				<port id="0" precision="FP16">
					<dim>1</dim>
					<dim>40</dim>
					<dim>1</dim>
					<dim>1</dim>
				</port>
			</output>
		</layer>
		<layer id="191" name="Constant_7356" type="Convert" version="opset1">
			<data destination_type="f32" />
			<rt_info>
				<attribute name="decompression" version="0" />
			</rt_info>
			<input>
				<port id="0" precision="FP16">
					<dim>1</dim>
					<dim>40</dim>
					<dim>1</dim>
					<dim>1</dim>
				</port>
			</input>
			<output>
				<port id="1" precision="FP32">
					<dim>1</dim>
					<dim>40</dim>
					<dim>1</dim>
					<dim>1</dim>
				</port>
			</output>
		</layer>
		<layer id="192" name="BatchNormalization.27" type="Add" version="opset1">
			<data auto_broadcast="numpy" />
			<input>
				<port id="0" precision="FP32">
					<dim>-1</dim>
					<dim>40</dim>
					<dim>-1</dim>
					<dim>-1</dim>
				</port>
				<port id="1" precision="FP32">
					<dim>1</dim>
					<dim>40</dim>
					<dim>1</dim>
					<dim>1</dim>
				</port>
			</input>
			<output>
				<port id="2" precision="FP32" names="p2o.pd_op.batch_norm_.27.0">
					<dim>-1</dim>
					<dim>40</dim>
					<dim>-1</dim>
					<dim>-1</dim>
				</port>
			</output>
		</layer>
		<layer id="193" name="Add.10" type="Add" version="opset1">
			<data auto_broadcast="numpy" />
			<input>
				<port id="0" precision="FP32">
					<dim>-1</dim>
					<dim>40</dim>
					<dim>-1</dim>
					<dim>-1</dim>
				</port>
				<port id="1" precision="FP32">
					<dim>-1</dim>
					<dim>40</dim>
					<dim>-1</dim>
					<dim>-1</dim>
				</port>
			</input>
			<output>
				<port id="2" precision="FP32" names="Add.11">
					<dim>-1</dim>
					<dim>40</dim>
					<dim>-1</dim>
					<dim>-1</dim>
				</port>
			</output>
		</layer>
		<layer id="194" name="Multiply_7613_compressed" type="Const" version="opset1">
			<data element_type="f16" shape="96, 40, 1, 1" offset="85984" size="7680" />
			<output>
				<port id="0" precision="FP16">
					<dim>96</dim>
					<dim>40</dim>
					<dim>1</dim>
					<dim>1</dim>
				</port>
			</output>
		</layer>
		<layer id="195" name="Multiply_7613" type="Convert" version="opset1">
			<data destination_type="f32" />
			<rt_info>
				<attribute name="decompression" version="0" />
			</rt_info>
			<input>
				<port id="0" precision="FP16">
					<dim>96</dim>
					<dim>40</dim>
					<dim>1</dim>
					<dim>1</dim>
				</port>
			</input>
			<output>
				<port id="1" precision="FP32">
					<dim>96</dim>
					<dim>40</dim>
					<dim>1</dim>
					<dim>1</dim>
				</port>
			</output>
		</layer>
		<layer id="196" name="Multiply_7358" type="Convolution" version="opset1">
			<data strides="1, 1" dilations="1, 1" pads_begin="0, 0" pads_end="0, 0" auto_pad="explicit" />
			<input>
				<port id="0" precision="FP32">
					<dim>-1</dim>
					<dim>40</dim>
					<dim>-1</dim>
					<dim>-1</dim>
				</port>
				<port id="1" precision="FP32">
					<dim>96</dim>
					<dim>40</dim>
					<dim>1</dim>
					<dim>1</dim>
				</port>
			</input>
			<output>
				<port id="2" precision="FP32">
					<dim>-1</dim>
					<dim>96</dim>
					<dim>-1</dim>
					<dim>-1</dim>
				</port>
			</output>
		</layer>
		<layer id="197" name="Constant_7363_compressed" type="Const" version="opset1">
			<data element_type="f16" shape="1, 96, 1, 1" offset="93664" size="192" />
			<output>
				<port id="0" precision="FP16">
					<dim>1</dim>
					<dim>96</dim>
					<dim>1</dim>
					<dim>1</dim>
				</port>
			</output>
		</layer>
		<layer id="198" name="Constant_7363" type="Convert" version="opset1">
			<data destination_type="f32" />
			<rt_info>
				<attribute name="decompression" version="0" />
			</rt_info>
			<input>
				<port id="0" precision="FP16">
					<dim>1</dim>
					<dim>96</dim>
					<dim>1</dim>
					<dim>1</dim>
				</port>
			</input>
			<output>
				<port id="1" precision="FP32">
					<dim>1</dim>
					<dim>96</dim>
					<dim>1</dim>
					<dim>1</dim>
				</port>
			</output>
		</layer>
		<layer id="199" name="BatchNormalization.28" type="Add" version="opset1">
			<data auto_broadcast="numpy" />
			<input>
				<port id="0" precision="FP32">
					<dim>-1</dim>
					<dim>96</dim>
					<dim>-1</dim>
					<dim>-1</dim>
				</port>
				<port id="1" precision="FP32">
					<dim>1</dim>
					<dim>96</dim>
					<dim>1</dim>
					<dim>1</dim>
				</port>
			</input>
			<output>
				<port id="2" precision="FP32" names="p2o.pd_op.batch_norm_.28.0">
					<dim>-1</dim>
					<dim>96</dim>
					<dim>-1</dim>
					<dim>-1</dim>
				</port>
			</output>
		</layer>
		<layer id="200" name="HardSwish.7" type="HSwish" version="opset4">
			<input>
				<port id="0" precision="FP32">
					<dim>-1</dim>
					<dim>96</dim>
					<dim>-1</dim>
					<dim>-1</dim>
				</port>
			</input>
			<output>
				<port id="1" precision="FP32" names="p2o.pd_op.hardswish.7.0">
					<dim>-1</dim>
					<dim>96</dim>
					<dim>-1</dim>
					<dim>-1</dim>
				</port>
			</output>
		</layer>
		<layer id="201" name="Multiply_7617_compressed" type="Const" version="opset1">
			<data element_type="f16" shape="96, 1, 1, 3, 3" offset="93856" size="1728" />
			<output>
				<port id="0" precision="FP16">
					<dim>96</dim>
					<dim>1</dim>
					<dim>1</dim>
					<dim>3</dim>
					<dim>3</dim>
				</port>
			</output>
		</layer>
		<layer id="202" name="Multiply_7617" type="Convert" version="opset1">
			<data destination_type="f32" />
			<rt_info>
				<attribute name="decompression" version="0" />
			</rt_info>
			<input>
				<port id="0" precision="FP16">
					<dim>96</dim>
					<dim>1</dim>
					<dim>1</dim>
					<dim>3</dim>
					<dim>3</dim>
				</port>
			</input>
			<output>
				<port id="1" precision="FP32">
					<dim>96</dim>
					<dim>1</dim>
					<dim>1</dim>
					<dim>3</dim>
					<dim>3</dim>
				</port>
			</output>
		</layer>
		<layer id="203" name="Multiply_7365" type="GroupConvolution" version="opset1">
			<data strides="1, 1" pads_begin="1, 1" pads_end="1, 1" dilations="1, 1" auto_pad="explicit" />
			<input>
				<port id="0" precision="FP32">
					<dim>-1</dim>
					<dim>96</dim>
					<dim>-1</dim>
					<dim>-1</dim>
				</port>
				<port id="1" precision="FP32">
					<dim>96</dim>
					<dim>1</dim>
					<dim>1</dim>
					<dim>3</dim>
					<dim>3</dim>
				</port>
			</input>
			<output>
				<port id="2" precision="FP32" names="p2o.pd_op.depthwise_conv2d.9.0">
					<dim>-1</dim>
					<dim>96</dim>
					<dim>-1</dim>
					<dim>-1</dim>
				</port>
			</output>
		</layer>
		<layer id="204" name="Constant_7370_compressed" type="Const" version="opset1">
			<data element_type="f16" shape="1, 96, 1, 1" offset="95584" size="192" />
			<output>
				<port id="0" precision="FP16">
					<dim>1</dim>
					<dim>96</dim>
					<dim>1</dim>
					<dim>1</dim>
				</port>
			</output>
		</layer>
		<layer id="205" name="Constant_7370" type="Convert" version="opset1">
			<data destination_type="f32" />
			<rt_info>
				<attribute name="decompression" version="0" />
			</rt_info>
			<input>
				<port id="0" precision="FP16">
					<dim>1</dim>
					<dim>96</dim>
					<dim>1</dim>
					<dim>1</dim>
				</port>
			</input>
			<output>
				<port id="1" precision="FP32">
					<dim>1</dim>
					<dim>96</dim>
					<dim>1</dim>
					<dim>1</dim>
				</port>
			</output>
		</layer>
		<layer id="206" name="BatchNormalization.29" type="Add" version="opset1">
			<data auto_broadcast="numpy" />
			<input>
				<port id="0" precision="FP32">
					<dim>-1</dim>
					<dim>96</dim>
					<dim>-1</dim>
					<dim>-1</dim>
				</port>
				<port id="1" precision="FP32">
					<dim>1</dim>
					<dim>96</dim>
					<dim>1</dim>
					<dim>1</dim>
				</port>
			</input>
			<output>
				<port id="2" precision="FP32" names="p2o.pd_op.batch_norm_.29.0">
					<dim>-1</dim>
					<dim>96</dim>
					<dim>-1</dim>
					<dim>-1</dim>
				</port>
			</output>
		</layer>
		<layer id="207" name="HardSwish.8" type="HSwish" version="opset4">
			<input>
				<port id="0" precision="FP32">
					<dim>-1</dim>
					<dim>96</dim>
					<dim>-1</dim>
					<dim>-1</dim>
				</port>
			</input>
			<output>
				<port id="1" precision="FP32" names="p2o.pd_op.hardswish.8.0">
					<dim>-1</dim>
					<dim>96</dim>
					<dim>-1</dim>
					<dim>-1</dim>
				</port>
			</output>
		</layer>
		<layer id="208" name="Multiply_7620_compressed" type="Const" version="opset1">
			<data element_type="f16" shape="40, 96, 1, 1" offset="95776" size="7680" />
			<output>
				<port id="0" precision="FP16">
					<dim>40</dim>
					<dim>96</dim>
					<dim>1</dim>
					<dim>1</dim>
				</port>
			</output>
		</layer>
		<layer id="209" name="Multiply_7620" type="Convert" version="opset1">
			<data destination_type="f32" />
			<rt_info>
				<attribute name="decompression" version="0" />
			</rt_info>
			<input>
				<port id="0" precision="FP16">
					<dim>40</dim>
					<dim>96</dim>
					<dim>1</dim>
					<dim>1</dim>
				</port>
			</input>
			<output>
				<port id="1" precision="FP32">
					<dim>40</dim>
					<dim>96</dim>
					<dim>1</dim>
					<dim>1</dim>
				</port>
			</output>
		</layer>
		<layer id="210" name="Multiply_7372" type="Convolution" version="opset1">
			<data strides="1, 1" dilations="1, 1" pads_begin="0, 0" pads_end="0, 0" auto_pad="explicit" />
			<input>
				<port id="0" precision="FP32">
					<dim>-1</dim>
					<dim>96</dim>
					<dim>-1</dim>
					<dim>-1</dim>
				</port>
				<port id="1" precision="FP32">
					<dim>40</dim>
					<dim>96</dim>
					<dim>1</dim>
					<dim>1</dim>
				</port>
			</input>
			<output>
				<port id="2" precision="FP32">
					<dim>-1</dim>
					<dim>40</dim>
					<dim>-1</dim>
					<dim>-1</dim>
				</port>
			</output>
		</layer>
		<layer id="211" name="Constant_7377_compressed" type="Const" version="opset1">
			<data element_type="f16" shape="1, 40, 1, 1" offset="103456" size="80" />
			<output>
				<port id="0" precision="FP16">
					<dim>1</dim>
					<dim>40</dim>
					<dim>1</dim>
					<dim>1</dim>
				</port>
			</output>
		</layer>
		<layer id="212" name="Constant_7377" type="Convert" version="opset1">
			<data destination_type="f32" />
			<rt_info>
				<attribute name="decompression" version="0" />
			</rt_info>
			<input>
				<port id="0" precision="FP16">
					<dim>1</dim>
					<dim>40</dim>
					<dim>1</dim>
					<dim>1</dim>
				</port>
			</input>
			<output>
				<port id="1" precision="FP32">
					<dim>1</dim>
					<dim>40</dim>
					<dim>1</dim>
					<dim>1</dim>
				</port>
			</output>
		</layer>
		<layer id="213" name="BatchNormalization.30" type="Add" version="opset1">
			<data auto_broadcast="numpy" />
			<input>
				<port id="0" precision="FP32">
					<dim>-1</dim>
					<dim>40</dim>
					<dim>-1</dim>
					<dim>-1</dim>
				</port>
				<port id="1" precision="FP32">
					<dim>1</dim>
					<dim>40</dim>
					<dim>1</dim>
					<dim>1</dim>
				</port>
			</input>
			<output>
				<port id="2" precision="FP32" names="p2o.pd_op.batch_norm_.30.0">
					<dim>-1</dim>
					<dim>40</dim>
					<dim>-1</dim>
					<dim>-1</dim>
				</port>
			</output>
		</layer>
		<layer id="214" name="Add.12" type="Add" version="opset1">
			<data auto_broadcast="numpy" />
			<input>
				<port id="0" precision="FP32">
					<dim>-1</dim>
					<dim>40</dim>
					<dim>-1</dim>
					<dim>-1</dim>
				</port>
				<port id="1" precision="FP32">
					<dim>-1</dim>
					<dim>40</dim>
					<dim>-1</dim>
					<dim>-1</dim>
				</port>
			</input>
			<output>
				<port id="2" precision="FP32" names="Add.13">
					<dim>-1</dim>
					<dim>40</dim>
					<dim>-1</dim>
					<dim>-1</dim>
				</port>
			</output>
		</layer>
		<layer id="215" name="Multiply_7624_compressed" type="Const" version="opset1">
			<data element_type="f16" shape="240, 40, 1, 1" offset="103536" size="19200" />
			<output>
				<port id="0" precision="FP16">
					<dim>240</dim>
					<dim>40</dim>
					<dim>1</dim>
					<dim>1</dim>
				</port>
			</output>
		</layer>
		<layer id="216" name="Multiply_7624" type="Convert" version="opset1">
			<data destination_type="f32" />
			<rt_info>
				<attribute name="decompression" version="0" />
			</rt_info>
			<input>
				<port id="0" precision="FP16">
					<dim>240</dim>
					<dim>40</dim>
					<dim>1</dim>
					<dim>1</dim>
				</port>
			</input>
			<output>
				<port id="1" precision="FP32">
					<dim>240</dim>
					<dim>40</dim>
					<dim>1</dim>
					<dim>1</dim>
				</port>
			</output>
		</layer>
		<layer id="217" name="Multiply_7379" type="Convolution" version="opset1">
			<data strides="1, 1" dilations="1, 1" pads_begin="0, 0" pads_end="0, 0" auto_pad="explicit" />
			<input>
				<port id="0" precision="FP32">
					<dim>-1</dim>
					<dim>40</dim>
					<dim>-1</dim>
					<dim>-1</dim>
				</port>
				<port id="1" precision="FP32">
					<dim>240</dim>
					<dim>40</dim>
					<dim>1</dim>
					<dim>1</dim>
				</port>
			</input>
			<output>
				<port id="2" precision="FP32">
					<dim>-1</dim>
					<dim>240</dim>
					<dim>-1</dim>
					<dim>-1</dim>
				</port>
			</output>
		</layer>
		<layer id="218" name="Constant_7384_compressed" type="Const" version="opset1">
			<data element_type="f16" shape="1, 240, 1, 1" offset="122736" size="480" />
			<output>
				<port id="0" precision="FP16">
					<dim>1</dim>
					<dim>240</dim>
					<dim>1</dim>
					<dim>1</dim>
				</port>
			</output>
		</layer>
		<layer id="219" name="Constant_7384" type="Convert" version="opset1">
			<data destination_type="f32" />
			<rt_info>
				<attribute name="decompression" version="0" />
			</rt_info>
			<input>
				<port id="0" precision="FP16">
					<dim>1</dim>
					<dim>240</dim>
					<dim>1</dim>
					<dim>1</dim>
				</port>
			</input>
			<output>
				<port id="1" precision="FP32">
					<dim>1</dim>
					<dim>240</dim>
					<dim>1</dim>
					<dim>1</dim>
				</port>
			</output>
		</layer>
		<layer id="220" name="BatchNormalization.31" type="Add" version="opset1">
			<data auto_broadcast="numpy" />
			<input>
				<port id="0" precision="FP32">
					<dim>-1</dim>
					<dim>240</dim>
					<dim>-1</dim>
					<dim>-1</dim>
				</port>
				<port id="1" precision="FP32">
					<dim>1</dim>
					<dim>240</dim>
					<dim>1</dim>
					<dim>1</dim>
				</port>
			</input>
			<output>
				<port id="2" precision="FP32" names="p2o.pd_op.batch_norm_.31.0">
					<dim>-1</dim>
					<dim>240</dim>
					<dim>-1</dim>
					<dim>-1</dim>
				</port>
			</output>
		</layer>
		<layer id="221" name="HardSwish.9" type="HSwish" version="opset4">
			<input>
				<port id="0" precision="FP32">
					<dim>-1</dim>
					<dim>240</dim>
					<dim>-1</dim>
					<dim>-1</dim>
				</port>
			</input>
			<output>
				<port id="1" precision="FP32" names="p2o.pd_op.hardswish.9.0">
					<dim>-1</dim>
					<dim>240</dim>
					<dim>-1</dim>
					<dim>-1</dim>
				</port>
			</output>
		</layer>
		<layer id="222" name="Multiply_7628_compressed" type="Const" version="opset1">
			<data element_type="f16" shape="240, 1, 1, 3, 3" offset="123216" size="4320" />
			<output>
				<port id="0" precision="FP16">
					<dim>240</dim>
					<dim>1</dim>
					<dim>1</dim>
					<dim>3</dim>
					<dim>3</dim>
				</port>
			</output>
		</layer>
		<layer id="223" name="Multiply_7628" type="Convert" version="opset1">
			<data destination_type="f32" />
			<rt_info>
				<attribute name="decompression" version="0" />
			</rt_info>
			<input>
				<port id="0" precision="FP16">
					<dim>240</dim>
					<dim>1</dim>
					<dim>1</dim>
					<dim>3</dim>
					<dim>3</dim>
				</port>
			</input>
			<output>
				<port id="1" precision="FP32">
					<dim>240</dim>
					<dim>1</dim>
					<dim>1</dim>
					<dim>3</dim>
					<dim>3</dim>
				</port>
			</output>
		</layer>
		<layer id="224" name="Multiply_7386" type="GroupConvolution" version="opset1">
			<data strides="1, 1" pads_begin="1, 1" pads_end="1, 1" dilations="1, 1" auto_pad="explicit" />
			<input>
				<port id="0" precision="FP32">
					<dim>-1</dim>
					<dim>240</dim>
					<dim>-1</dim>
					<dim>-1</dim>
				</port>
				<port id="1" precision="FP32">
					<dim>240</dim>
					<dim>1</dim>
					<dim>1</dim>
					<dim>3</dim>
					<dim>3</dim>
				</port>
			</input>
			<output>
				<port id="2" precision="FP32" names="p2o.pd_op.depthwise_conv2d.10.0">
					<dim>-1</dim>
					<dim>240</dim>
					<dim>-1</dim>
					<dim>-1</dim>
				</port>
			</output>
		</layer>
		<layer id="225" name="Constant_7391_compressed" type="Const" version="opset1">
			<data element_type="f16" shape="1, 240, 1, 1" offset="127536" size="480" />
			<output>
				<port id="0" precision="FP16">
					<dim>1</dim>
					<dim>240</dim>
					<dim>1</dim>
					<dim>1</dim>
				</port>
			</output>
		</layer>
		<layer id="226" name="Constant_7391" type="Convert" version="opset1">
			<data destination_type="f32" />
			<rt_info>
				<attribute name="decompression" version="0" />
			</rt_info>
			<input>
				<port id="0" precision="FP16">
					<dim>1</dim>
					<dim>240</dim>
					<dim>1</dim>
					<dim>1</dim>
				</port>
			</input>
			<output>
				<port id="1" precision="FP32">
					<dim>1</dim>
					<dim>240</dim>
					<dim>1</dim>
					<dim>1</dim>
				</port>
			</output>
		</layer>
		<layer id="227" name="BatchNormalization.32" type="Add" version="opset1">
			<data auto_broadcast="numpy" />
			<input>
				<port id="0" precision="FP32">
					<dim>-1</dim>
					<dim>240</dim>
					<dim>-1</dim>
					<dim>-1</dim>
				</port>
				<port id="1" precision="FP32">
					<dim>1</dim>
					<dim>240</dim>
					<dim>1</dim>
					<dim>1</dim>
				</port>
			</input>
			<output>
				<port id="2" precision="FP32" names="p2o.pd_op.batch_norm_.32.0">
					<dim>-1</dim>
					<dim>240</dim>
					<dim>-1</dim>
					<dim>-1</dim>
				</port>
			</output>
		</layer>
		<layer id="228" name="HardSwish.10" type="HSwish" version="opset4">
			<input>
				<port id="0" precision="FP32">
					<dim>-1</dim>
					<dim>240</dim>
					<dim>-1</dim>
					<dim>-1</dim>
				</port>
			</input>
			<output>
				<port id="1" precision="FP32" names="p2o.pd_op.hardswish.10.0">
					<dim>-1</dim>
					<dim>240</dim>
					<dim>-1</dim>
					<dim>-1</dim>
				</port>
			</output>
		</layer>
		<layer id="229" name="Multiply_7631_compressed" type="Const" version="opset1">
			<data element_type="f16" shape="56, 240, 1, 1" offset="128016" size="26880" />
			<output>
				<port id="0" precision="FP16">
					<dim>56</dim>
					<dim>240</dim>
					<dim>1</dim>
					<dim>1</dim>
				</port>
			</output>
		</layer>
		<layer id="230" name="Multiply_7631" type="Convert" version="opset1">
			<data destination_type="f32" />
			<rt_info>
				<attribute name="decompression" version="0" />
			</rt_info>
			<input>
				<port id="0" precision="FP16">
					<dim>56</dim>
					<dim>240</dim>
					<dim>1</dim>
					<dim>1</dim>
				</port>
			</input>
			<output>
				<port id="1" precision="FP32">
					<dim>56</dim>
					<dim>240</dim>
					<dim>1</dim>
					<dim>1</dim>
				</port>
			</output>
		</layer>
		<layer id="231" name="Multiply_7393" type="Convolution" version="opset1">
			<data strides="1, 1" dilations="1, 1" pads_begin="0, 0" pads_end="0, 0" auto_pad="explicit" />
			<input>
				<port id="0" precision="FP32">
					<dim>-1</dim>
					<dim>240</dim>
					<dim>-1</dim>
					<dim>-1</dim>
				</port>
				<port id="1" precision="FP32">
					<dim>56</dim>
					<dim>240</dim>
					<dim>1</dim>
					<dim>1</dim>
				</port>
			</input>
			<output>
				<port id="2" precision="FP32">
					<dim>-1</dim>
					<dim>56</dim>
					<dim>-1</dim>
					<dim>-1</dim>
				</port>
			</output>
		</layer>
		<layer id="232" name="Constant_7398_compressed" type="Const" version="opset1">
			<data element_type="f16" shape="1, 56, 1, 1" offset="154896" size="112" />
			<output>
				<port id="0" precision="FP16">
					<dim>1</dim>
					<dim>56</dim>
					<dim>1</dim>
					<dim>1</dim>
				</port>
			</output>
		</layer>
		<layer id="233" name="Constant_7398" type="Convert" version="opset1">
			<data destination_type="f32" />
			<rt_info>
				<attribute name="decompression" version="0" />
			</rt_info>
			<input>
				<port id="0" precision="FP16">
					<dim>1</dim>
					<dim>56</dim>
					<dim>1</dim>
					<dim>1</dim>
				</port>
			</input>
			<output>
				<port id="1" precision="FP32">
					<dim>1</dim>
					<dim>56</dim>
					<dim>1</dim>
					<dim>1</dim>
				</port>
			</output>
		</layer>
		<layer id="234" name="BatchNormalization.33" type="Add" version="opset1">
			<data auto_broadcast="numpy" />
			<input>
				<port id="0" precision="FP32">
					<dim>-1</dim>
					<dim>56</dim>
					<dim>-1</dim>
					<dim>-1</dim>
				</port>
				<port id="1" precision="FP32">
					<dim>1</dim>
					<dim>56</dim>
					<dim>1</dim>
					<dim>1</dim>
				</port>
			</input>
			<output>
				<port id="2" precision="FP32" names="p2o.pd_op.batch_norm_.33.0">
					<dim>-1</dim>
					<dim>56</dim>
					<dim>-1</dim>
					<dim>-1</dim>
				</port>
			</output>
		</layer>
		<layer id="235" name="Multiply_7635_compressed" type="Const" version="opset1">
			<data element_type="f16" shape="336, 56, 1, 1" offset="155008" size="37632" />
			<output>
				<port id="0" precision="FP16">
					<dim>336</dim>
					<dim>56</dim>
					<dim>1</dim>
					<dim>1</dim>
				</port>
			</output>
		</layer>
		<layer id="236" name="Multiply_7635" type="Convert" version="opset1">
			<data destination_type="f32" />
			<rt_info>
				<attribute name="decompression" version="0" />
			</rt_info>
			<input>
				<port id="0" precision="FP16">
					<dim>336</dim>
					<dim>56</dim>
					<dim>1</dim>
					<dim>1</dim>
				</port>
			</input>
			<output>
				<port id="1" precision="FP32">
					<dim>336</dim>
					<dim>56</dim>
					<dim>1</dim>
					<dim>1</dim>
				</port>
			</output>
		</layer>
		<layer id="237" name="Multiply_7400" type="Convolution" version="opset1">
			<data strides="1, 1" dilations="1, 1" pads_begin="0, 0" pads_end="0, 0" auto_pad="explicit" />
			<input>
				<port id="0" precision="FP32">
					<dim>-1</dim>
					<dim>56</dim>
					<dim>-1</dim>
					<dim>-1</dim>
				</port>
				<port id="1" precision="FP32">
					<dim>336</dim>
					<dim>56</dim>
					<dim>1</dim>
					<dim>1</dim>
				</port>
			</input>
			<output>
				<port id="2" precision="FP32">
					<dim>-1</dim>
					<dim>336</dim>
					<dim>-1</dim>
					<dim>-1</dim>
				</port>
			</output>
		</layer>
		<layer id="238" name="Constant_7405_compressed" type="Const" version="opset1">
			<data element_type="f16" shape="1, 336, 1, 1" offset="192640" size="672" />
			<output>
				<port id="0" precision="FP16">
					<dim>1</dim>
					<dim>336</dim>
					<dim>1</dim>
					<dim>1</dim>
				</port>
			</output>
		</layer>
		<layer id="239" name="Constant_7405" type="Convert" version="opset1">
			<data destination_type="f32" />
			<rt_info>
				<attribute name="decompression" version="0" />
			</rt_info>
			<input>
				<port id="0" precision="FP16">
					<dim>1</dim>
					<dim>336</dim>
					<dim>1</dim>
					<dim>1</dim>
				</port>
			</input>
			<output>
				<port id="1" precision="FP32">
					<dim>1</dim>
					<dim>336</dim>
					<dim>1</dim>
					<dim>1</dim>
				</port>
			</output>
		</layer>
		<layer id="240" name="BatchNormalization.34" type="Add" version="opset1">
			<data auto_broadcast="numpy" />
			<input>
				<port id="0" precision="FP32">
					<dim>-1</dim>
					<dim>336</dim>
					<dim>-1</dim>
					<dim>-1</dim>
				</port>
				<port id="1" precision="FP32">
					<dim>1</dim>
					<dim>336</dim>
					<dim>1</dim>
					<dim>1</dim>
				</port>
			</input>
			<output>
				<port id="2" precision="FP32" names="p2o.pd_op.batch_norm_.34.0">
					<dim>-1</dim>
					<dim>336</dim>
					<dim>-1</dim>
					<dim>-1</dim>
				</port>
			</output>
		</layer>
		<layer id="241" name="HardSwish.11" type="HSwish" version="opset4">
			<input>
				<port id="0" precision="FP32">
					<dim>-1</dim>
					<dim>336</dim>
					<dim>-1</dim>
					<dim>-1</dim>
				</port>
			</input>
			<output>
				<port id="1" precision="FP32" names="p2o.pd_op.hardswish.11.0">
					<dim>-1</dim>
					<dim>336</dim>
					<dim>-1</dim>
					<dim>-1</dim>
				</port>
			</output>
		</layer>
		<layer id="242" name="Multiply_7639_compressed" type="Const" version="opset1">
			<data element_type="f16" shape="336, 1, 1, 3, 3" offset="193312" size="6048" />
			<output>
				<port id="0" precision="FP16">
					<dim>336</dim>
					<dim>1</dim>
					<dim>1</dim>
					<dim>3</dim>
					<dim>3</dim>
				</port>
			</output>
		</layer>
		<layer id="243" name="Multiply_7639" type="Convert" version="opset1">
			<data destination_type="f32" />
			<rt_info>
				<attribute name="decompression" version="0" />
			</rt_info>
			<input>
				<port id="0" precision="FP16">
					<dim>336</dim>
					<dim>1</dim>
					<dim>1</dim>
					<dim>3</dim>
					<dim>3</dim>
				</port>
			</input>
			<output>
				<port id="1" precision="FP32">
					<dim>336</dim>
					<dim>1</dim>
					<dim>1</dim>
					<dim>3</dim>
					<dim>3</dim>
				</port>
			</output>
		</layer>
		<layer id="244" name="Multiply_7407" type="GroupConvolution" version="opset1">
			<data strides="1, 1" pads_begin="1, 1" pads_end="1, 1" dilations="1, 1" auto_pad="explicit" />
			<input>
				<port id="0" precision="FP32">
					<dim>-1</dim>
					<dim>336</dim>
					<dim>-1</dim>
					<dim>-1</dim>
				</port>
				<port id="1" precision="FP32">
					<dim>336</dim>
					<dim>1</dim>
					<dim>1</dim>
					<dim>3</dim>
					<dim>3</dim>
				</port>
			</input>
			<output>
				<port id="2" precision="FP32" names="p2o.pd_op.depthwise_conv2d.11.0">
					<dim>-1</dim>
					<dim>336</dim>
					<dim>-1</dim>
					<dim>-1</dim>
				</port>
			</output>
		</layer>
		<layer id="245" name="Constant_7412_compressed" type="Const" version="opset1">
			<data element_type="f16" shape="1, 336, 1, 1" offset="199360" size="672" />
			<output>
				<port id="0" precision="FP16">
					<dim>1</dim>
					<dim>336</dim>
					<dim>1</dim>
					<dim>1</dim>
				</port>
			</output>
		</layer>
		<layer id="246" name="Constant_7412" type="Convert" version="opset1">
			<data destination_type="f32" />
			<rt_info>
				<attribute name="decompression" version="0" />
			</rt_info>
			<input>
				<port id="0" precision="FP16">
					<dim>1</dim>
					<dim>336</dim>
					<dim>1</dim>
					<dim>1</dim>
				</port>
			</input>
			<output>
				<port id="1" precision="FP32">
					<dim>1</dim>
					<dim>336</dim>
					<dim>1</dim>
					<dim>1</dim>
				</port>
			</output>
		</layer>
		<layer id="247" name="BatchNormalization.35" type="Add" version="opset1">
			<data auto_broadcast="numpy" />
			<input>
				<port id="0" precision="FP32">
					<dim>-1</dim>
					<dim>336</dim>
					<dim>-1</dim>
					<dim>-1</dim>
				</port>
				<port id="1" precision="FP32">
					<dim>1</dim>
					<dim>336</dim>
					<dim>1</dim>
					<dim>1</dim>
				</port>
			</input>
			<output>
				<port id="2" precision="FP32" names="p2o.pd_op.batch_norm_.35.0">
					<dim>-1</dim>
					<dim>336</dim>
					<dim>-1</dim>
					<dim>-1</dim>
				</port>
			</output>
		</layer>
		<layer id="248" name="HardSwish.12" type="HSwish" version="opset4">
			<input>
				<port id="0" precision="FP32">
					<dim>-1</dim>
					<dim>336</dim>
					<dim>-1</dim>
					<dim>-1</dim>
				</port>
			</input>
			<output>
				<port id="1" precision="FP32" names="p2o.pd_op.hardswish.12.0">
					<dim>-1</dim>
					<dim>336</dim>
					<dim>-1</dim>
					<dim>-1</dim>
				</port>
			</output>
		</layer>
		<layer id="249" name="Multiply_7642_compressed" type="Const" version="opset1">
			<data element_type="f16" shape="56, 336, 1, 1" offset="200032" size="37632" />
			<output>
				<port id="0" precision="FP16">
					<dim>56</dim>
					<dim>336</dim>
					<dim>1</dim>
					<dim>1</dim>
				</port>
			</output>
		</layer>
		<layer id="250" name="Multiply_7642" type="Convert" version="opset1">
			<data destination_type="f32" />
			<rt_info>
				<attribute name="decompression" version="0" />
			</rt_info>
			<input>
				<port id="0" precision="FP16">
					<dim>56</dim>
					<dim>336</dim>
					<dim>1</dim>
					<dim>1</dim>
				</port>
			</input>
			<output>
				<port id="1" precision="FP32">
					<dim>56</dim>
					<dim>336</dim>
					<dim>1</dim>
					<dim>1</dim>
				</port>
			</output>
		</layer>
		<layer id="251" name="Multiply_7414" type="Convolution" version="opset1">
			<data strides="1, 1" dilations="1, 1" pads_begin="0, 0" pads_end="0, 0" auto_pad="explicit" />
			<input>
				<port id="0" precision="FP32">
					<dim>-1</dim>
					<dim>336</dim>
					<dim>-1</dim>
					<dim>-1</dim>
				</port>
				<port id="1" precision="FP32">
					<dim>56</dim>
					<dim>336</dim>
					<dim>1</dim>
					<dim>1</dim>
				</port>
			</input>
			<output>
				<port id="2" precision="FP32">
					<dim>-1</dim>
					<dim>56</dim>
					<dim>-1</dim>
					<dim>-1</dim>
				</port>
			</output>
		</layer>
		<layer id="252" name="Constant_7419_compressed" type="Const" version="opset1">
			<data element_type="f16" shape="1, 56, 1, 1" offset="237664" size="112" />
			<output>
				<port id="0" precision="FP16">
					<dim>1</dim>
					<dim>56</dim>
					<dim>1</dim>
					<dim>1</dim>
				</port>
			</output>
		</layer>
		<layer id="253" name="Constant_7419" type="Convert" version="opset1">
			<data destination_type="f32" />
			<rt_info>
				<attribute name="decompression" version="0" />
			</rt_info>
			<input>
				<port id="0" precision="FP16">
					<dim>1</dim>
					<dim>56</dim>
					<dim>1</dim>
					<dim>1</dim>
				</port>
			</input>
			<output>
				<port id="1" precision="FP32">
					<dim>1</dim>
					<dim>56</dim>
					<dim>1</dim>
					<dim>1</dim>
				</port>
			</output>
		</layer>
		<layer id="254" name="BatchNormalization.36" type="Add" version="opset1">
			<data auto_broadcast="numpy" />
			<input>
				<port id="0" precision="FP32">
					<dim>-1</dim>
					<dim>56</dim>
					<dim>-1</dim>
					<dim>-1</dim>
				</port>
				<port id="1" precision="FP32">
					<dim>1</dim>
					<dim>56</dim>
					<dim>1</dim>
					<dim>1</dim>
				</port>
			</input>
			<output>
				<port id="2" precision="FP32" names="p2o.pd_op.batch_norm_.36.0">
					<dim>-1</dim>
					<dim>56</dim>
					<dim>-1</dim>
					<dim>-1</dim>
				</port>
			</output>
		</layer>
		<layer id="255" name="Add.14" type="Add" version="opset1">
			<data auto_broadcast="numpy" />
			<input>
				<port id="0" precision="FP32">
					<dim>-1</dim>
					<dim>56</dim>
					<dim>-1</dim>
					<dim>-1</dim>
				</port>
				<port id="1" precision="FP32">
					<dim>-1</dim>
					<dim>56</dim>
					<dim>-1</dim>
					<dim>-1</dim>
				</port>
			</input>
			<output>
				<port id="2" precision="FP32" names="Add.15">
					<dim>-1</dim>
					<dim>56</dim>
					<dim>-1</dim>
					<dim>-1</dim>
				</port>
			</output>
		</layer>
		<layer id="256" name="Multiply_7646_compressed" type="Const" version="opset1">
			<data element_type="f16" shape="336, 56, 1, 1" offset="237776" size="37632" />
			<output>
				<port id="0" precision="FP16">
					<dim>336</dim>
					<dim>56</dim>
					<dim>1</dim>
					<dim>1</dim>
				</port>
			</output>
		</layer>
		<layer id="257" name="Multiply_7646" type="Convert" version="opset1">
			<data destination_type="f32" />
			<rt_info>
				<attribute name="decompression" version="0" />
			</rt_info>
			<input>
				<port id="0" precision="FP16">
					<dim>336</dim>
					<dim>56</dim>
					<dim>1</dim>
					<dim>1</dim>
				</port>
			</input>
			<output>
				<port id="1" precision="FP32">
					<dim>336</dim>
					<dim>56</dim>
					<dim>1</dim>
					<dim>1</dim>
				</port>
			</output>
		</layer>
		<layer id="258" name="Multiply_7421" type="Convolution" version="opset1">
			<data strides="1, 1" dilations="1, 1" pads_begin="0, 0" pads_end="0, 0" auto_pad="explicit" />
			<input>
				<port id="0" precision="FP32">
					<dim>-1</dim>
					<dim>56</dim>
					<dim>-1</dim>
					<dim>-1</dim>
				</port>
				<port id="1" precision="FP32">
					<dim>336</dim>
					<dim>56</dim>
					<dim>1</dim>
					<dim>1</dim>
				</port>
			</input>
			<output>
				<port id="2" precision="FP32">
					<dim>-1</dim>
					<dim>336</dim>
					<dim>-1</dim>
					<dim>-1</dim>
				</port>
			</output>
		</layer>
		<layer id="259" name="Constant_7426_compressed" type="Const" version="opset1">
			<data element_type="f16" shape="1, 336, 1, 1" offset="275408" size="672" />
			<output>
				<port id="0" precision="FP16">
					<dim>1</dim>
					<dim>336</dim>
					<dim>1</dim>
					<dim>1</dim>
				</port>
			</output>
		</layer>
		<layer id="260" name="Constant_7426" type="Convert" version="opset1">
			<data destination_type="f32" />
			<rt_info>
				<attribute name="decompression" version="0" />
			</rt_info>
			<input>
				<port id="0" precision="FP16">
					<dim>1</dim>
					<dim>336</dim>
					<dim>1</dim>
					<dim>1</dim>
				</port>
			</input>
			<output>
				<port id="1" precision="FP32">
					<dim>1</dim>
					<dim>336</dim>
					<dim>1</dim>
					<dim>1</dim>
				</port>
			</output>
		</layer>
		<layer id="261" name="BatchNormalization.37" type="Add" version="opset1">
			<data auto_broadcast="numpy" />
			<input>
				<port id="0" precision="FP32">
					<dim>-1</dim>
					<dim>336</dim>
					<dim>-1</dim>
					<dim>-1</dim>
				</port>
				<port id="1" precision="FP32">
					<dim>1</dim>
					<dim>336</dim>
					<dim>1</dim>
					<dim>1</dim>
				</port>
			</input>
			<output>
				<port id="2" precision="FP32" names="p2o.pd_op.batch_norm_.37.0">
					<dim>-1</dim>
					<dim>336</dim>
					<dim>-1</dim>
					<dim>-1</dim>
				</port>
			</output>
		</layer>
		<layer id="262" name="HardSwish.13" type="HSwish" version="opset4">
			<input>
				<port id="0" precision="FP32">
					<dim>-1</dim>
					<dim>336</dim>
					<dim>-1</dim>
					<dim>-1</dim>
				</port>
			</input>
			<output>
				<port id="1" precision="FP32" names="p2o.pd_op.hardswish.13.0">
					<dim>-1</dim>
					<dim>336</dim>
					<dim>-1</dim>
					<dim>-1</dim>
				</port>
			</output>
		</layer>
		<layer id="263" name="Multiply_7650_compressed" type="Const" version="opset1">
			<data element_type="f16" shape="336, 1, 1, 5, 5" offset="276080" size="16800" />
			<output>
				<port id="0" precision="FP16">
					<dim>336</dim>
					<dim>1</dim>
					<dim>1</dim>
					<dim>5</dim>
					<dim>5</dim>
				</port>
			</output>
		</layer>
		<layer id="264" name="Multiply_7650" type="Convert" version="opset1">
			<data destination_type="f32" />
			<rt_info>
				<attribute name="decompression" version="0" />
			</rt_info>
			<input>
				<port id="0" precision="FP16">
					<dim>336</dim>
					<dim>1</dim>
					<dim>1</dim>
					<dim>5</dim>
					<dim>5</dim>
				</port>
			</input>
			<output>
				<port id="1" precision="FP32">
					<dim>336</dim>
					<dim>1</dim>
					<dim>1</dim>
					<dim>5</dim>
					<dim>5</dim>
				</port>
			</output>
		</layer>
		<layer id="265" name="Multiply_7428" type="GroupConvolution" version="opset1">
			<data strides="2, 2" pads_begin="2, 2" pads_end="2, 2" dilations="1, 1" auto_pad="explicit" />
			<input>
				<port id="0" precision="FP32">
					<dim>-1</dim>
					<dim>336</dim>
					<dim>-1</dim>
					<dim>-1</dim>
				</port>
				<port id="1" precision="FP32">
					<dim>336</dim>
					<dim>1</dim>
					<dim>1</dim>
					<dim>5</dim>
					<dim>5</dim>
				</port>
			</input>
			<output>
				<port id="2" precision="FP32" names="p2o.pd_op.depthwise_conv2d.12.0">
					<dim>-1</dim>
					<dim>336</dim>
					<dim>-1</dim>
					<dim>-1</dim>
				</port>
			</output>
		</layer>
		<layer id="266" name="Constant_7433_compressed" type="Const" version="opset1">
			<data element_type="f16" shape="1, 336, 1, 1" offset="292880" size="672" />
			<output>
				<port id="0" precision="FP16">
					<dim>1</dim>
					<dim>336</dim>
					<dim>1</dim>
					<dim>1</dim>
				</port>
			</output>
		</layer>
		<layer id="267" name="Constant_7433" type="Convert" version="opset1">
			<data destination_type="f32" />
			<rt_info>
				<attribute name="decompression" version="0" />
			</rt_info>
			<input>
				<port id="0" precision="FP16">
					<dim>1</dim>
					<dim>336</dim>
					<dim>1</dim>
					<dim>1</dim>
				</port>
			</input>
			<output>
				<port id="1" precision="FP32">
					<dim>1</dim>
					<dim>336</dim>
					<dim>1</dim>
					<dim>1</dim>
				</port>
			</output>
		</layer>
		<layer id="268" name="BatchNormalization.38" type="Add" version="opset1">
			<data auto_broadcast="numpy" />
			<input>
				<port id="0" precision="FP32">
					<dim>-1</dim>
					<dim>336</dim>
					<dim>-1</dim>
					<dim>-1</dim>
				</port>
				<port id="1" precision="FP32">
					<dim>1</dim>
					<dim>336</dim>
					<dim>1</dim>
					<dim>1</dim>
				</port>
			</input>
			<output>
				<port id="2" precision="FP32" names="p2o.pd_op.batch_norm_.38.0">
					<dim>-1</dim>
					<dim>336</dim>
					<dim>-1</dim>
					<dim>-1</dim>
				</port>
			</output>
		</layer>
		<layer id="269" name="HardSwish.14" type="HSwish" version="opset4">
			<input>
				<port id="0" precision="FP32">
					<dim>-1</dim>
					<dim>336</dim>
					<dim>-1</dim>
					<dim>-1</dim>
				</port>
			</input>
			<output>
				<port id="1" precision="FP32" names="p2o.pd_op.hardswish.14.0">
					<dim>-1</dim>
					<dim>336</dim>
					<dim>-1</dim>
					<dim>-1</dim>
				</port>
			</output>
		</layer>
		<layer id="270" name="Multiply_7653_compressed" type="Const" version="opset1">
			<data element_type="f16" shape="80, 336, 1, 1" offset="293552" size="53760" />
			<output>
				<port id="0" precision="FP16">
					<dim>80</dim>
					<dim>336</dim>
					<dim>1</dim>
					<dim>1</dim>
				</port>
			</output>
		</layer>
		<layer id="271" name="Multiply_7653" type="Convert" version="opset1">
			<data destination_type="f32" />
			<rt_info>
				<attribute name="decompression" version="0" />
			</rt_info>
			<input>
				<port id="0" precision="FP16">
					<dim>80</dim>
					<dim>336</dim>
					<dim>1</dim>
					<dim>1</dim>
				</port>
			</input>
			<output>
				<port id="1" precision="FP32">
					<dim>80</dim>
					<dim>336</dim>
					<dim>1</dim>
					<dim>1</dim>
				</port>
			</output>
		</layer>
		<layer id="272" name="Multiply_7435" type="Convolution" version="opset1">
			<data strides="1, 1" dilations="1, 1" pads_begin="0, 0" pads_end="0, 0" auto_pad="explicit" />
			<input>
				<port id="0" precision="FP32">
					<dim>-1</dim>
					<dim>336</dim>
					<dim>-1</dim>
					<dim>-1</dim>
				</port>
				<port id="1" precision="FP32">
					<dim>80</dim>
					<dim>336</dim>
					<dim>1</dim>
					<dim>1</dim>
				</port>
			</input>
			<output>
				<port id="2" precision="FP32">
					<dim>-1</dim>
					<dim>80</dim>
					<dim>-1</dim>
					<dim>-1</dim>
				</port>
			</output>
		</layer>
		<layer id="273" name="Constant_7440_compressed" type="Const" version="opset1">
			<data element_type="f16" shape="1, 80, 1, 1" offset="347312" size="160" />
			<output>
				<port id="0" precision="FP16">
					<dim>1</dim>
					<dim>80</dim>
					<dim>1</dim>
					<dim>1</dim>
				</port>
			</output>
		</layer>
		<layer id="274" name="Constant_7440" type="Convert" version="opset1">
			<data destination_type="f32" />
			<rt_info>
				<attribute name="decompression" version="0" />
			</rt_info>
			<input>
				<port id="0" precision="FP16">
					<dim>1</dim>
					<dim>80</dim>
					<dim>1</dim>
					<dim>1</dim>
				</port>
			</input>
			<output>
				<port id="1" precision="FP32">
					<dim>1</dim>
					<dim>80</dim>
					<dim>1</dim>
					<dim>1</dim>
				</port>
			</output>
		</layer>
		<layer id="275" name="BatchNormalization.39" type="Add" version="opset1">
			<data auto_broadcast="numpy" />
			<input>
				<port id="0" precision="FP32">
					<dim>-1</dim>
					<dim>80</dim>
					<dim>-1</dim>
					<dim>-1</dim>
				</port>
				<port id="1" precision="FP32">
					<dim>1</dim>
					<dim>80</dim>
					<dim>1</dim>
					<dim>1</dim>
				</port>
			</input>
			<output>
				<port id="2" precision="FP32" names="p2o.pd_op.batch_norm_.39.0">
					<dim>-1</dim>
					<dim>80</dim>
					<dim>-1</dim>
					<dim>-1</dim>
				</port>
			</output>
		</layer>
		<layer id="276" name="Multiply_7657_compressed" type="Const" version="opset1">
			<data element_type="f16" shape="480, 80, 1, 1" offset="347472" size="76800" />
			<output>
				<port id="0" precision="FP16">
					<dim>480</dim>
					<dim>80</dim>
					<dim>1</dim>
					<dim>1</dim>
				</port>
			</output>
		</layer>
		<layer id="277" name="Multiply_7657" type="Convert" version="opset1">
			<data destination_type="f32" />
			<rt_info>
				<attribute name="decompression" version="0" />
			</rt_info>
			<input>
				<port id="0" precision="FP16">
					<dim>480</dim>
					<dim>80</dim>
					<dim>1</dim>
					<dim>1</dim>
				</port>
			</input>
			<output>
				<port id="1" precision="FP32">
					<dim>480</dim>
					<dim>80</dim>
					<dim>1</dim>
					<dim>1</dim>
				</port>
			</output>
		</layer>
		<layer id="278" name="Multiply_7442" type="Convolution" version="opset1">
			<data strides="1, 1" dilations="1, 1" pads_begin="0, 0" pads_end="0, 0" auto_pad="explicit" />
			<input>
				<port id="0" precision="FP32">
					<dim>-1</dim>
					<dim>80</dim>
					<dim>-1</dim>
					<dim>-1</dim>
				</port>
				<port id="1" precision="FP32">
					<dim>480</dim>
					<dim>80</dim>
					<dim>1</dim>
					<dim>1</dim>
				</port>
			</input>
			<output>
				<port id="2" precision="FP32">
					<dim>-1</dim>
					<dim>480</dim>
					<dim>-1</dim>
					<dim>-1</dim>
				</port>
			</output>
		</layer>
		<layer id="279" name="Constant_7447_compressed" type="Const" version="opset1">
			<data element_type="f16" shape="1, 480, 1, 1" offset="424272" size="960" />
			<output>
				<port id="0" precision="FP16">
					<dim>1</dim>
					<dim>480</dim>
					<dim>1</dim>
					<dim>1</dim>
				</port>
			</output>
		</layer>
		<layer id="280" name="Constant_7447" type="Convert" version="opset1">
			<data destination_type="f32" />
			<rt_info>
				<attribute name="decompression" version="0" />
			</rt_info>
			<input>
				<port id="0" precision="FP16">
					<dim>1</dim>
					<dim>480</dim>
					<dim>1</dim>
					<dim>1</dim>
				</port>
			</input>
			<output>
				<port id="1" precision="FP32">
					<dim>1</dim>
					<dim>480</dim>
					<dim>1</dim>
					<dim>1</dim>
				</port>
			</output>
		</layer>
		<layer id="281" name="BatchNormalization.40" type="Add" version="opset1">
			<data auto_broadcast="numpy" />
			<input>
				<port id="0" precision="FP32">
					<dim>-1</dim>
					<dim>480</dim>
					<dim>-1</dim>
					<dim>-1</dim>
				</port>
				<port id="1" precision="FP32">
					<dim>1</dim>
					<dim>480</dim>
					<dim>1</dim>
					<dim>1</dim>
				</port>
			</input>
			<output>
				<port id="2" precision="FP32" names="p2o.pd_op.batch_norm_.40.0">
					<dim>-1</dim>
					<dim>480</dim>
					<dim>-1</dim>
					<dim>-1</dim>
				</port>
			</output>
		</layer>
		<layer id="282" name="HardSwish.15" type="HSwish" version="opset4">
			<input>
				<port id="0" precision="FP32">
					<dim>-1</dim>
					<dim>480</dim>
					<dim>-1</dim>
					<dim>-1</dim>
				</port>
			</input>
			<output>
				<port id="1" precision="FP32" names="p2o.pd_op.hardswish.15.0">
					<dim>-1</dim>
					<dim>480</dim>
					<dim>-1</dim>
					<dim>-1</dim>
				</port>
			</output>
		</layer>
		<layer id="283" name="Multiply_7661_compressed" type="Const" version="opset1">
			<data element_type="f16" shape="480, 1, 1, 5, 5" offset="425232" size="24000" />
			<output>
				<port id="0" precision="FP16">
					<dim>480</dim>
					<dim>1</dim>
					<dim>1</dim>
					<dim>5</dim>
					<dim>5</dim>
				</port>
			</output>
		</layer>
		<layer id="284" name="Multiply_7661" type="Convert" version="opset1">
			<data destination_type="f32" />
			<rt_info>
				<attribute name="decompression" version="0" />
			</rt_info>
			<input>
				<port id="0" precision="FP16">
					<dim>480</dim>
					<dim>1</dim>
					<dim>1</dim>
					<dim>5</dim>
					<dim>5</dim>
				</port>
			</input>
			<output>
				<port id="1" precision="FP32">
					<dim>480</dim>
					<dim>1</dim>
					<dim>1</dim>
					<dim>5</dim>
					<dim>5</dim>
				</port>
			</output>
		</layer>
		<layer id="285" name="Multiply_7449" type="GroupConvolution" version="opset1">
			<data strides="1, 1" pads_begin="2, 2" pads_end="2, 2" dilations="1, 1" auto_pad="explicit" />
			<input>
				<port id="0" precision="FP32">
					<dim>-1</dim>
					<dim>480</dim>
					<dim>-1</dim>
					<dim>-1</dim>
				</port>
				<port id="1" precision="FP32">
					<dim>480</dim>
					<dim>1</dim>
					<dim>1</dim>
					<dim>5</dim>
					<dim>5</dim>
				</port>
			</input>
			<output>
				<port id="2" precision="FP32" names="p2o.pd_op.depthwise_conv2d.13.0">
					<dim>-1</dim>
					<dim>480</dim>
					<dim>-1</dim>
					<dim>-1</dim>
				</port>
			</output>
		</layer>
		<layer id="286" name="Constant_7454_compressed" type="Const" version="opset1">
			<data element_type="f16" shape="1, 480, 1, 1" offset="449232" size="960" />
			<output>
				<port id="0" precision="FP16">
					<dim>1</dim>
					<dim>480</dim>
					<dim>1</dim>
					<dim>1</dim>
				</port>
			</output>
		</layer>
		<layer id="287" name="Constant_7454" type="Convert" version="opset1">
			<data destination_type="f32" />
			<rt_info>
				<attribute name="decompression" version="0" />
			</rt_info>
			<input>
				<port id="0" precision="FP16">
					<dim>1</dim>
					<dim>480</dim>
					<dim>1</dim>
					<dim>1</dim>
				</port>
			</input>
			<output>
				<port id="1" precision="FP32">
					<dim>1</dim>
					<dim>480</dim>
					<dim>1</dim>
					<dim>1</dim>
				</port>
			</output>
		</layer>
		<layer id="288" name="BatchNormalization.41" type="Add" version="opset1">
			<data auto_broadcast="numpy" />
			<input>
				<port id="0" precision="FP32">
					<dim>-1</dim>
					<dim>480</dim>
					<dim>-1</dim>
					<dim>-1</dim>
				</port>
				<port id="1" precision="FP32">
					<dim>1</dim>
					<dim>480</dim>
					<dim>1</dim>
					<dim>1</dim>
				</port>
			</input>
			<output>
				<port id="2" precision="FP32" names="p2o.pd_op.batch_norm_.41.0">
					<dim>-1</dim>
					<dim>480</dim>
					<dim>-1</dim>
					<dim>-1</dim>
				</port>
			</output>
		</layer>
		<layer id="289" name="HardSwish.16" type="HSwish" version="opset4">
			<input>
				<port id="0" precision="FP32">
					<dim>-1</dim>
					<dim>480</dim>
					<dim>-1</dim>
					<dim>-1</dim>
				</port>
			</input>
			<output>
				<port id="1" precision="FP32" names="p2o.pd_op.hardswish.16.0">
					<dim>-1</dim>
					<dim>480</dim>
					<dim>-1</dim>
					<dim>-1</dim>
				</port>
			</output>
		</layer>
		<layer id="290" name="Multiply_7664_compressed" type="Const" version="opset1">
			<data element_type="f16" shape="80, 480, 1, 1" offset="450192" size="76800" />
			<output>
				<port id="0" precision="FP16">
					<dim>80</dim>
					<dim>480</dim>
					<dim>1</dim>
					<dim>1</dim>
				</port>
			</output>
		</layer>
		<layer id="291" name="Multiply_7664" type="Convert" version="opset1">
			<data destination_type="f32" />
			<rt_info>
				<attribute name="decompression" version="0" />
			</rt_info>
			<input>
				<port id="0" precision="FP16">
					<dim>80</dim>
					<dim>480</dim>
					<dim>1</dim>
					<dim>1</dim>
				</port>
			</input>
			<output>
				<port id="1" precision="FP32">
					<dim>80</dim>
					<dim>480</dim>
					<dim>1</dim>
					<dim>1</dim>
				</port>
			</output>
		</layer>
		<layer id="292" name="Multiply_7456" type="Convolution" version="opset1">
			<data strides="1, 1" dilations="1, 1" pads_begin="0, 0" pads_end="0, 0" auto_pad="explicit" />
			<input>
				<port id="0" precision="FP32">
					<dim>-1</dim>
					<dim>480</dim>
					<dim>-1</dim>
					<dim>-1</dim>
				</port>
				<port id="1" precision="FP32">
					<dim>80</dim>
					<dim>480</dim>
					<dim>1</dim>
					<dim>1</dim>
				</port>
			</input>
			<output>
				<port id="2" precision="FP32">
					<dim>-1</dim>
					<dim>80</dim>
					<dim>-1</dim>
					<dim>-1</dim>
				</port>
			</output>
		</layer>
		<layer id="293" name="Constant_7461_compressed" type="Const" version="opset1">
			<data element_type="f16" shape="1, 80, 1, 1" offset="526992" size="160" />
			<output>
				<port id="0" precision="FP16">
					<dim>1</dim>
					<dim>80</dim>
					<dim>1</dim>
					<dim>1</dim>
				</port>
			</output>
		</layer>
		<layer id="294" name="Constant_7461" type="Convert" version="opset1">
			<data destination_type="f32" />
			<rt_info>
				<attribute name="decompression" version="0" />
			</rt_info>
			<input>
				<port id="0" precision="FP16">
					<dim>1</dim>
					<dim>80</dim>
					<dim>1</dim>
					<dim>1</dim>
				</port>
			</input>
			<output>
				<port id="1" precision="FP32">
					<dim>1</dim>
					<dim>80</dim>
					<dim>1</dim>
					<dim>1</dim>
				</port>
			</output>
		</layer>
		<layer id="295" name="BatchNormalization.42" type="Add" version="opset1">
			<data auto_broadcast="numpy" />
			<input>
				<port id="0" precision="FP32">
					<dim>-1</dim>
					<dim>80</dim>
					<dim>-1</dim>
					<dim>-1</dim>
				</port>
				<port id="1" precision="FP32">
					<dim>1</dim>
					<dim>80</dim>
					<dim>1</dim>
					<dim>1</dim>
				</port>
			</input>
			<output>
				<port id="2" precision="FP32" names="p2o.pd_op.batch_norm_.42.0">
					<dim>-1</dim>
					<dim>80</dim>
					<dim>-1</dim>
					<dim>-1</dim>
				</port>
			</output>
		</layer>
		<layer id="296" name="Add.16" type="Add" version="opset1">
			<data auto_broadcast="numpy" />
			<input>
				<port id="0" precision="FP32">
					<dim>-1</dim>
					<dim>80</dim>
					<dim>-1</dim>
					<dim>-1</dim>
				</port>
				<port id="1" precision="FP32">
					<dim>-1</dim>
					<dim>80</dim>
					<dim>-1</dim>
					<dim>-1</dim>
				</port>
			</input>
			<output>
				<port id="2" precision="FP32" names="Add.17">
					<dim>-1</dim>
					<dim>80</dim>
					<dim>-1</dim>
					<dim>-1</dim>
				</port>
			</output>
		</layer>
		<layer id="297" name="Multiply_7668_compressed" type="Const" version="opset1">
			<data element_type="f16" shape="480, 80, 1, 1" offset="527152" size="76800" />
			<output>
				<port id="0" precision="FP16">
					<dim>480</dim>
					<dim>80</dim>
					<dim>1</dim>
					<dim>1</dim>
				</port>
			</output>
		</layer>
		<layer id="298" name="Multiply_7668" type="Convert" version="opset1">
			<data destination_type="f32" />
			<rt_info>
				<attribute name="decompression" version="0" />
			</rt_info>
			<input>
				<port id="0" precision="FP16">
					<dim>480</dim>
					<dim>80</dim>
					<dim>1</dim>
					<dim>1</dim>
				</port>
			</input>
			<output>
				<port id="1" precision="FP32">
					<dim>480</dim>
					<dim>80</dim>
					<dim>1</dim>
					<dim>1</dim>
				</port>
			</output>
		</layer>
		<layer id="299" name="Multiply_7463" type="Convolution" version="opset1">
			<data strides="1, 1" dilations="1, 1" pads_begin="0, 0" pads_end="0, 0" auto_pad="explicit" />
			<input>
				<port id="0" precision="FP32">
					<dim>-1</dim>
					<dim>80</dim>
					<dim>-1</dim>
					<dim>-1</dim>
				</port>
				<port id="1" precision="FP32">
					<dim>480</dim>
					<dim>80</dim>
					<dim>1</dim>
					<dim>1</dim>
				</port>
			</input>
			<output>
				<port id="2" precision="FP32">
					<dim>-1</dim>
					<dim>480</dim>
					<dim>-1</dim>
					<dim>-1</dim>
				</port>
			</output>
		</layer>
		<layer id="300" name="Constant_7468_compressed" type="Const" version="opset1">
			<data element_type="f16" shape="1, 480, 1, 1" offset="603952" size="960" />
			<output>
				<port id="0" precision="FP16">
					<dim>1</dim>
					<dim>480</dim>
					<dim>1</dim>
					<dim>1</dim>
				</port>
			</output>
		</layer>
		<layer id="301" name="Constant_7468" type="Convert" version="opset1">
			<data destination_type="f32" />
			<rt_info>
				<attribute name="decompression" version="0" />
			</rt_info>
			<input>
				<port id="0" precision="FP16">
					<dim>1</dim>
					<dim>480</dim>
					<dim>1</dim>
					<dim>1</dim>
				</port>
			</input>
			<output>
				<port id="1" precision="FP32">
					<dim>1</dim>
					<dim>480</dim>
					<dim>1</dim>
					<dim>1</dim>
				</port>
			</output>
		</layer>
		<layer id="302" name="BatchNormalization.43" type="Add" version="opset1">
			<data auto_broadcast="numpy" />
			<input>
				<port id="0" precision="FP32">
					<dim>-1</dim>
					<dim>480</dim>
					<dim>-1</dim>
					<dim>-1</dim>
				</port>
				<port id="1" precision="FP32">
					<dim>1</dim>
					<dim>480</dim>
					<dim>1</dim>
					<dim>1</dim>
				</port>
			</input>
			<output>
				<port id="2" precision="FP32" names="p2o.pd_op.batch_norm_.43.0">
					<dim>-1</dim>
					<dim>480</dim>
					<dim>-1</dim>
					<dim>-1</dim>
				</port>
			</output>
		</layer>
		<layer id="303" name="HardSwish.17" type="HSwish" version="opset4">
			<input>
				<port id="0" precision="FP32">
					<dim>-1</dim>
					<dim>480</dim>
					<dim>-1</dim>
					<dim>-1</dim>
				</port>
			</input>
			<output>
				<port id="1" precision="FP32" names="p2o.pd_op.hardswish.17.0">
					<dim>-1</dim>
					<dim>480</dim>
					<dim>-1</dim>
					<dim>-1</dim>
				</port>
			</output>
		</layer>
		<layer id="304" name="Multiply_7672_compressed" type="Const" version="opset1">
			<data element_type="f16" shape="480, 1, 1, 5, 5" offset="604912" size="24000" />
			<output>
				<port id="0" precision="FP16">
					<dim>480</dim>
					<dim>1</dim>
					<dim>1</dim>
					<dim>5</dim>
					<dim>5</dim>
				</port>
			</output>
		</layer>
		<layer id="305" name="Multiply_7672" type="Convert" version="opset1">
			<data destination_type="f32" />
			<rt_info>
				<attribute name="decompression" version="0" />
			</rt_info>
			<input>
				<port id="0" precision="FP16">
					<dim>480</dim>
					<dim>1</dim>
					<dim>1</dim>
					<dim>5</dim>
					<dim>5</dim>
				</port>
			</input>
			<output>
				<port id="1" precision="FP32">
					<dim>480</dim>
					<dim>1</dim>
					<dim>1</dim>
					<dim>5</dim>
					<dim>5</dim>
				</port>
			</output>
		</layer>
		<layer id="306" name="Multiply_7470" type="GroupConvolution" version="opset1">
			<data strides="1, 1" pads_begin="2, 2" pads_end="2, 2" dilations="1, 1" auto_pad="explicit" />
			<input>
				<port id="0" precision="FP32">
					<dim>-1</dim>
					<dim>480</dim>
					<dim>-1</dim>
					<dim>-1</dim>
				</port>
				<port id="1" precision="FP32">
					<dim>480</dim>
					<dim>1</dim>
					<dim>1</dim>
					<dim>5</dim>
					<dim>5</dim>
				</port>
			</input>
			<output>
				<port id="2" precision="FP32" names="p2o.pd_op.depthwise_conv2d.14.0">
					<dim>-1</dim>
					<dim>480</dim>
					<dim>-1</dim>
					<dim>-1</dim>
				</port>
			</output>
		</layer>
		<layer id="307" name="Constant_7475_compressed" type="Const" version="opset1">
			<data element_type="f16" shape="1, 480, 1, 1" offset="628912" size="960" />
			<output>
				<port id="0" precision="FP16">
					<dim>1</dim>
					<dim>480</dim>
					<dim>1</dim>
					<dim>1</dim>
				</port>
			</output>
		</layer>
		<layer id="308" name="Constant_7475" type="Convert" version="opset1">
			<data destination_type="f32" />
			<rt_info>
				<attribute name="decompression" version="0" />
			</rt_info>
			<input>
				<port id="0" precision="FP16">
					<dim>1</dim>
					<dim>480</dim>
					<dim>1</dim>
					<dim>1</dim>
				</port>
			</input>
			<output>
				<port id="1" precision="FP32">
					<dim>1</dim>
					<dim>480</dim>
					<dim>1</dim>
					<dim>1</dim>
				</port>
			</output>
		</layer>
		<layer id="309" name="BatchNormalization.44" type="Add" version="opset1">
			<data auto_broadcast="numpy" />
			<input>
				<port id="0" precision="FP32">
					<dim>-1</dim>
					<dim>480</dim>
					<dim>-1</dim>
					<dim>-1</dim>
				</port>
				<port id="1" precision="FP32">
					<dim>1</dim>
					<dim>480</dim>
					<dim>1</dim>
					<dim>1</dim>
				</port>
			</input>
			<output>
				<port id="2" precision="FP32" names="p2o.pd_op.batch_norm_.44.0">
					<dim>-1</dim>
					<dim>480</dim>
					<dim>-1</dim>
					<dim>-1</dim>
				</port>
			</output>
		</layer>
		<layer id="310" name="HardSwish.18" type="HSwish" version="opset4">
			<input>
				<port id="0" precision="FP32">
					<dim>-1</dim>
					<dim>480</dim>
					<dim>-1</dim>
					<dim>-1</dim>
				</port>
			</input>
			<output>
				<port id="1" precision="FP32" names="p2o.pd_op.hardswish.18.0">
					<dim>-1</dim>
					<dim>480</dim>
					<dim>-1</dim>
					<dim>-1</dim>
				</port>
			</output>
		</layer>
		<layer id="311" name="Multiply_7675_compressed" type="Const" version="opset1">
			<data element_type="f16" shape="80, 480, 1, 1" offset="629872" size="76800" />
			<output>
				<port id="0" precision="FP16">
					<dim>80</dim>
					<dim>480</dim>
					<dim>1</dim>
					<dim>1</dim>
				</port>
			</output>
		</layer>
		<layer id="312" name="Multiply_7675" type="Convert" version="opset1">
			<data destination_type="f32" />
			<rt_info>
				<attribute name="decompression" version="0" />
			</rt_info>
			<input>
				<port id="0" precision="FP16">
					<dim>80</dim>
					<dim>480</dim>
					<dim>1</dim>
					<dim>1</dim>
				</port>
			</input>
			<output>
				<port id="1" precision="FP32">
					<dim>80</dim>
					<dim>480</dim>
					<dim>1</dim>
					<dim>1</dim>
				</port>
			</output>
		</layer>
		<layer id="313" name="Multiply_7477" type="Convolution" version="opset1">
			<data strides="1, 1" dilations="1, 1" pads_begin="0, 0" pads_end="0, 0" auto_pad="explicit" />
			<input>
				<port id="0" precision="FP32">
					<dim>-1</dim>
					<dim>480</dim>
					<dim>-1</dim>
					<dim>-1</dim>
				</port>
				<port id="1" precision="FP32">
					<dim>80</dim>
					<dim>480</dim>
					<dim>1</dim>
					<dim>1</dim>
				</port>
			</input>
			<output>
				<port id="2" precision="FP32">
					<dim>-1</dim>
					<dim>80</dim>
					<dim>-1</dim>
					<dim>-1</dim>
				</port>
			</output>
		</layer>
		<layer id="314" name="Constant_7482_compressed" type="Const" version="opset1">
			<data element_type="f16" shape="1, 80, 1, 1" offset="706672" size="160" />
			<output>
				<port id="0" precision="FP16">
					<dim>1</dim>
					<dim>80</dim>
					<dim>1</dim>
					<dim>1</dim>
				</port>
			</output>
		</layer>
		<layer id="315" name="Constant_7482" type="Convert" version="opset1">
			<data destination_type="f32" />
			<rt_info>
				<attribute name="decompression" version="0" />
			</rt_info>
			<input>
				<port id="0" precision="FP16">
					<dim>1</dim>
					<dim>80</dim>
					<dim>1</dim>
					<dim>1</dim>
				</port>
			</input>
			<output>
				<port id="1" precision="FP32">
					<dim>1</dim>
					<dim>80</dim>
					<dim>1</dim>
					<dim>1</dim>
				</port>
			</output>
		</layer>
		<layer id="316" name="BatchNormalization.45" type="Add" version="opset1">
			<data auto_broadcast="numpy" />
			<input>
				<port id="0" precision="FP32">
					<dim>-1</dim>
					<dim>80</dim>
					<dim>-1</dim>
					<dim>-1</dim>
				</port>
				<port id="1" precision="FP32">
					<dim>1</dim>
					<dim>80</dim>
					<dim>1</dim>
					<dim>1</dim>
				</port>
			</input>
			<output>
				<port id="2" precision="FP32" names="p2o.pd_op.batch_norm_.45.0">
					<dim>-1</dim>
					<dim>80</dim>
					<dim>-1</dim>
					<dim>-1</dim>
				</port>
			</output>
		</layer>
		<layer id="317" name="Add.18" type="Add" version="opset1">
			<data auto_broadcast="numpy" />
			<input>
				<port id="0" precision="FP32">
					<dim>-1</dim>
					<dim>80</dim>
					<dim>-1</dim>
					<dim>-1</dim>
				</port>
				<port id="1" precision="FP32">
					<dim>-1</dim>
					<dim>80</dim>
					<dim>-1</dim>
					<dim>-1</dim>
				</port>
			</input>
			<output>
				<port id="2" precision="FP32" names="Add.19">
					<dim>-1</dim>
					<dim>80</dim>
					<dim>-1</dim>
					<dim>-1</dim>
				</port>
			</output>
		</layer>
		<layer id="318" name="Multiply_7679_compressed" type="Const" version="opset1">
			<data element_type="f16" shape="480, 80, 1, 1" offset="706832" size="76800" />
			<output>
				<port id="0" precision="FP16">
					<dim>480</dim>
					<dim>80</dim>
					<dim>1</dim>
					<dim>1</dim>
				</port>
			</output>
		</layer>
		<layer id="319" name="Multiply_7679" type="Convert" version="opset1">
			<data destination_type="f32" />
			<rt_info>
				<attribute name="decompression" version="0" />
			</rt_info>
			<input>
				<port id="0" precision="FP16">
					<dim>480</dim>
					<dim>80</dim>
					<dim>1</dim>
					<dim>1</dim>
				</port>
			</input>
			<output>
				<port id="1" precision="FP32">
					<dim>480</dim>
					<dim>80</dim>
					<dim>1</dim>
					<dim>1</dim>
				</port>
			</output>
		</layer>
		<layer id="320" name="Multiply_7484" type="Convolution" version="opset1">
			<data strides="1, 1" dilations="1, 1" pads_begin="0, 0" pads_end="0, 0" auto_pad="explicit" />
			<input>
				<port id="0" precision="FP32">
					<dim>-1</dim>
					<dim>80</dim>
					<dim>-1</dim>
					<dim>-1</dim>
				</port>
				<port id="1" precision="FP32">
					<dim>480</dim>
					<dim>80</dim>
					<dim>1</dim>
					<dim>1</dim>
				</port>
			</input>
			<output>
				<port id="2" precision="FP32">
					<dim>-1</dim>
					<dim>480</dim>
					<dim>-1</dim>
					<dim>-1</dim>
				</port>
			</output>
		</layer>
		<layer id="321" name="Constant_7489_compressed" type="Const" version="opset1">
			<data element_type="f16" shape="1, 480, 1, 1" offset="783632" size="960" />
			<output>
				<port id="0" precision="FP16">
					<dim>1</dim>
					<dim>480</dim>
					<dim>1</dim>
					<dim>1</dim>
				</port>
			</output>
		</layer>
		<layer id="322" name="Constant_7489" type="Convert" version="opset1">
			<data destination_type="f32" />
			<rt_info>
				<attribute name="decompression" version="0" />
			</rt_info>
			<input>
				<port id="0" precision="FP16">
					<dim>1</dim>
					<dim>480</dim>
					<dim>1</dim>
					<dim>1</dim>
				</port>
			</input>
			<output>
				<port id="1" precision="FP32">
					<dim>1</dim>
					<dim>480</dim>
					<dim>1</dim>
					<dim>1</dim>
				</port>
			</output>
		</layer>
		<layer id="323" name="BatchNormalization.46" type="Add" version="opset1">
			<data auto_broadcast="numpy" />
			<input>
				<port id="0" precision="FP32">
					<dim>-1</dim>
					<dim>480</dim>
					<dim>-1</dim>
					<dim>-1</dim>
				</port>
				<port id="1" precision="FP32">
					<dim>1</dim>
					<dim>480</dim>
…
			<data strides="1, 1" dilations="1, 1" pads_begin="1, 1" pads_end="1, 1" auto_pad="explicit" />
			<input>
				<port id="0" precision="FP32">
					<dim>-1</dim>
					<dim>96</dim>
					<dim>-1</dim>
					<dim>-1</dim>
				</port>
				<port id="1" precision="FP32">
					<dim>24</dim>
					<dim>96</dim>
					<dim>3</dim>
					<dim>3</dim>
				</port>
			</input>
			<output>
				<port id="2" precision="FP32">
					<dim>-1</dim>
					<dim>24</dim>
					<dim>-1</dim>
					<dim>-1</dim>
				</port>
			</output>
		</layer>
		<layer id="544" name="Constant_7496_compressed" type="Const" version="opset1">
			<data element_type="f16" shape="1, 24, 1, 1" offset="1142980" size="48" />
			<output>
				<port id="0" precision="FP16">
					<dim>1</dim>
					<dim>24</dim>
					<dim>1</dim>
					<dim>1</dim>
				</port>
			</output>
		</layer>
		<layer id="545" name="Constant_7496" type="Convert" version="opset1">
			<data destination_type="f32" />
			<rt_info>
				<attribute name="decompression" version="0" />
			</rt_info>
			<input>
				<port id="0" precision="FP16">
					<dim>1</dim>
					<dim>24</dim>
					<dim>1</dim>
					<dim>1</dim>
				</port>
			</input>
			<output>
				<port id="1" precision="FP32">
					<dim>1</dim>
					<dim>24</dim>
					<dim>1</dim>
					<dim>1</dim>
				</port>
			</output>
		</layer>
		<layer id="546" name="BatchNormalization.47" type="Add" version="opset1">
			<data auto_broadcast="numpy" />
			<input>
				<port id="0" precision="FP32">
					<dim>-1</dim>
					<dim>24</dim>
					<dim>-1</dim>
					<dim>-1</dim>
				</port>
				<port id="1" precision="FP32">
					<dim>1</dim>
					<dim>24</dim>
					<dim>1</dim>
					<dim>1</dim>
				</port>
			</input>
			<output>
				<port id="2" precision="FP32" names="p2o.pd_op.batch_norm_.47.0">
					<dim>-1</dim>
					<dim>24</dim>
					<dim>-1</dim>
					<dim>-1</dim>
				</port>
			</output>
		</layer>
		<layer id="547" name="Relu.20" type="ReLU" version="opset1">
			<input>
				<port id="0" precision="FP32">
					<dim>-1</dim>
					<dim>24</dim>
					<dim>-1</dim>
					<dim>-1</dim>
				</port>
			</input>
			<output>
				<port id="1" precision="FP32" names="p2o.pd_op.relu.20.0">
					<dim>-1</dim>
					<dim>24</dim>
					<dim>-1</dim>
					<dim>-1</dim>
				</port>
			</output>
		</layer>
		<layer id="548" name="Multiply_7687_compressed" type="Const" version="opset1">
			<data element_type="f16" shape="24, 24, 2, 2" offset="1143028" size="4608" />
			<output>
				<port id="0" precision="FP16">
					<dim>24</dim>
					<dim>24</dim>
					<dim>2</dim>
					<dim>2</dim>
				</port>
			</output>
		</layer>
		<layer id="549" name="Multiply_7687" type="Convert" version="opset1">
			<data destination_type="f32" />
			<rt_info>
				<attribute name="decompression" version="0" />
			</rt_info>
			<input>
				<port id="0" precision="FP16">
					<dim>24</dim>
					<dim>24</dim>
					<dim>2</dim>
					<dim>2</dim>
				</port>
			</input>
			<output>
				<port id="1" precision="FP32">
					<dim>24</dim>
					<dim>24</dim>
					<dim>2</dim>
					<dim>2</dim>
				</port>
			</output>
		</layer>
		<layer id="550" name="Multiply_7501" type="ConvolutionBackpropData" version="opset1">
			<data strides="2, 2" dilations="1, 1" pads_begin="0, 0" pads_end="0, 0" auto_pad="explicit" output_padding="0, 0" />
			<input>
				<port id="0" precision="FP32">
					<dim>-1</dim>
					<dim>24</dim>
					<dim>-1</dim>
					<dim>-1</dim>
				</port>
				<port id="1" precision="FP32">
					<dim>24</dim>
					<dim>24</dim>
					<dim>2</dim>
					<dim>2</dim>
				</port>
			</input>
			<output>
				<port id="2" precision="FP32">
					<dim>-1</dim>
					<dim>24</dim>
					<dim>-1</dim>
					<dim>-1</dim>
				</port>
			</output>
		</layer>
		<layer id="551" name="Constant_7506_compressed" type="Const" version="opset1">
			<data element_type="f16" shape="1, 24, 1, 1" offset="1147636" size="48" />
			<output>
				<port id="0" precision="FP16">
					<dim>1</dim>
					<dim>24</dim>
					<dim>1</dim>
					<dim>1</dim>
				</port>
			</output>
		</layer>
		<layer id="552" name="Constant_7506" type="Convert" version="opset1">
			<data destination_type="f32" />
			<rt_info>
				<attribute name="decompression" version="0" />
			</rt_info>
			<input>
				<port id="0" precision="FP16">
					<dim>1</dim>
					<dim>24</dim>
					<dim>1</dim>
					<dim>1</dim>
				</port>
			</input>
			<output>
				<port id="1" precision="FP32">
					<dim>1</dim>
					<dim>24</dim>
					<dim>1</dim>
					<dim>1</dim>
				</port>
			</output>
		</layer>
		<layer id="553" name="BatchNormalization.48" type="Add" version="opset1">
			<data auto_broadcast="numpy" />
			<input>
				<port id="0" precision="FP32">
					<dim>-1</dim>
					<dim>24</dim>
					<dim>-1</dim>
					<dim>-1</dim>
				</port>
				<port id="1" precision="FP32">
					<dim>1</dim>
					<dim>24</dim>
					<dim>1</dim>
					<dim>1</dim>
				</port>
			</input>
			<output>
				<port id="2" precision="FP32" names="p2o.pd_op.batch_norm_.48.0">
					<dim>-1</dim>
					<dim>24</dim>
					<dim>-1</dim>
					<dim>-1</dim>
				</port>
			</output>
		</layer>
		<layer id="554" name="Relu.21" type="ReLU" version="opset1">
			<input>
				<port id="0" precision="FP32">
					<dim>-1</dim>
					<dim>24</dim>
					<dim>-1</dim>
					<dim>-1</dim>
				</port>
			</input>
			<output>
				<port id="1" precision="FP32" names="p2o.pd_op.relu.21.0">
					<dim>-1</dim>
					<dim>24</dim>
					<dim>-1</dim>
					<dim>-1</dim>
				</port>
			</output>
		</layer>
		<layer id="555" name="conv2d_transpose_1.w_0_compressed" type="Const" version="opset1">
			<data element_type="f16" shape="24, 1, 2, 2" offset="1147684" size="192" />
			<output>
				<port id="0" precision="FP16" names="conv2d_transpose_1.w_0">
					<dim>24</dim>
					<dim>1</dim>
					<dim>2</dim>
					<dim>2</dim>
				</port>
			</output>
		</layer>
		<layer id="556" name="conv2d_transpose_1.w_0" type="Convert" version="opset1">
			<data destination_type="f32" />
			<rt_info>
				<attribute name="decompression" version="0" />
			</rt_info>
			<input>
				<port id="0" precision="FP16">
					<dim>24</dim>
					<dim>1</dim>
					<dim>2</dim>
					<dim>2</dim>
				</port>
			</input>
			<output>
				<port id="1" precision="FP32">
					<dim>24</dim>
					<dim>1</dim>
					<dim>2</dim>
					<dim>2</dim>
				</port>
			</output>
		</layer>
		<layer id="557" name="ConvTranspose.2" type="ConvolutionBackpropData" version="opset1">
			<data strides="2, 2" dilations="1, 1" pads_begin="0, 0" pads_end="0, 0" auto_pad="explicit" output_padding="0, 0" />
			<input>
				<port id="0" precision="FP32">
					<dim>-1</dim>
					<dim>24</dim>
					<dim>-1</dim>
					<dim>-1</dim>
				</port>
				<port id="1" precision="FP32">
					<dim>24</dim>
					<dim>1</dim>
					<dim>2</dim>
					<dim>2</dim>
				</port>
			</input>
			<output>
				<port id="2" precision="FP32" names="ConvTranspose.3">
					<dim>-1</dim>
					<dim>1</dim>
					<dim>-1</dim>
					<dim>-1</dim>
				</port>
			</output>
		</layer>
		<layer id="558" name="Reshape.17_compressed" type="Const" version="opset1">
			<data element_type="f16" shape="1, 1, 1, 1" offset="1147876" size="2" />
			<output>
				<port id="0" precision="FP16" names="p2o.pd_op.reshape.17.0">
					<dim>1</dim>
					<dim>1</dim>
					<dim>1</dim>
					<dim>1</dim>
				</port>
			</output>
		</layer>
		<layer id="559" name="Reshape.17" type="Convert" version="opset1">
			<data destination_type="f32" />
			<rt_info>
				<attribute name="decompression" version="0" />
			</rt_info>
			<input>
				<port id="0" precision="FP16">
					<dim>1</dim>
					<dim>1</dim>
					<dim>1</dim>
					<dim>1</dim>
				</port>
			</input>
			<output>
				<port id="1" precision="FP32">
					<dim>1</dim>
					<dim>1</dim>
					<dim>1</dim>
					<dim>1</dim>
				</port>
			</output>
		</layer>
		<layer id="560" name="Add.76" type="Add" version="opset1">
			<data auto_broadcast="numpy" />
			<input>
				<port id="0" precision="FP32">
					<dim>-1</dim>
					<dim>1</dim>
					<dim>-1</dim>
					<dim>-1</dim>
				</port>
				<port id="1" precision="FP32">
					<dim>1</dim>
					<dim>1</dim>
					<dim>1</dim>
					<dim>1</dim>
				</port>
			</input>
			<output>
				<port id="2" precision="FP32" names="Add.77">
					<dim>-1</dim>
					<dim>1</dim>
					<dim>-1</dim>
					<dim>-1</dim>
				</port>
			</output>
		</layer>
		<layer id="561" name="fetch_name_0" type="Sigmoid" version="opset1">
			<input>
				<port id="0" precision="FP32">
					<dim>-1</dim>
					<dim>1</dim>
					<dim>-1</dim>
					<dim>-1</dim>
				</port>
			</input>
			<output>
				<port id="1" precision="FP32" names="fetch_name_0">
					<dim>-1</dim>
					<dim>1</dim>
					<dim>-1</dim>
					<dim>-1</dim>
				</port>
			</output>
		</layer>
		<layer id="562" name="fetch_name_0/sink_port_0" type="Result" version="opset1">
			<input>
				<port id="0" precision="FP32">
					<dim>-1</dim>
					<dim>1</dim>
					<dim>-1</dim>
					<dim>-1</dim>
				</port>
			</input>
		</layer>
	</layers>
	<edges>
		<edge from-layer="0" from-port="0" to-layer="3" to-port="0" />
		<edge from-layer="1" from-port="0" to-layer="2" to-port="0" />
		<edge from-layer="2" from-port="1" to-layer="3" to-port="1" />
		<edge from-layer="3" from-port="2" to-layer="6" to-port="0" />
		<edge from-layer="4" from-port="0" to-layer="5" to-port="0" />
		<edge from-layer="5" from-port="1" to-layer="6" to-port="1" />
		<edge from-layer="6" from-port="2" to-layer="7" to-port="0" />
		<edge from-layer="7" from-port="1" to-layer="10" to-port="0" />
		<edge from-layer="7" from-port="1" to-layer="28" to-port="0" />
		<edge from-layer="8" from-port="0" to-layer="9" to-port="0" />
		<edge from-layer="9" from-port="1" to-layer="10" to-port="1" />
		<edge from-layer="10" from-port="2" to-layer="13" to-port="0" />
		<edge from-layer="11" from-port="0" to-layer="12" to-port="0" />
		<edge from-layer="12" from-port="1" to-layer="13" to-port="1" />
		<edge from-layer="13" from-port="2" to-layer="14" to-port="0" />
		<edge from-layer="14" from-port="1" to-layer="17" to-port="0" />
		<edge from-layer="15" from-port="0" to-layer="16" to-port="0" />
		<edge from-layer="16" from-port="1" to-layer="17" to-port="1" />
		<edge from-layer="17" from-port="2" to-layer="20" to-port="0" />
		<edge from-layer="18" from-port="0" to-layer="19" to-port="0" />
		<edge from-layer="19" from-port="1" to-layer="20" to-port="1" />
		<edge from-layer="20" from-port="2" to-layer="21" to-port="0" />
		<edge from-layer="21" from-port="1" to-layer="24" to-port="0" />
		<edge from-layer="22" from-port="0" to-layer="23" to-port="0" />
		<edge from-layer="23" from-port="1" to-layer="24" to-port="1" />
		<edge from-layer="24" from-port="2" to-layer="27" to-port="0" />
		<edge from-layer="25" from-port="0" to-layer="26" to-port="0" />
		<edge from-layer="26" from-port="1" to-layer="27" to-port="1" />
		<edge from-layer="27" from-port="2" to-layer="28" to-port="1" />
		<edge from-layer="28" from-port="2" to-layer="31" to-port="0" />
		<edge from-layer="29" from-port="0" to-layer="30" to-port="0" />
		<edge from-layer="30" from-port="1" to-layer="31" to-port="1" />
		<edge from-layer="31" from-port="2" to-layer="34" to-port="0" />
		<edge from-layer="32" from-port="0" to-layer="33" to-port="0" />
		<edge from-layer="33" from-port="1" to-layer="34" to-port="1" />
		<edge from-layer="34" from-port="2" to-layer="35" to-port="0" />
		<edge from-layer="35" from-port="1" to-layer="38" to-port="0" />
		<edge from-layer="36" from-port="0" to-layer="37" to-port="0" />
		<edge from-layer="37" from-port="1" to-layer="38" to-port="1" />
		<edge from-layer="38" from-port="2" to-layer="41" to-port="0" />
		<edge from-layer="39" from-port="0" to-layer="40" to-port="0" />
		<edge from-layer="40" from-port="1" to-layer="41" to-port="1" />
		<edge from-layer="41" from-port="2" to-layer="42" to-port="0" />
		<edge from-layer="42" from-port="1" to-layer="45" to-port="0" />
		<edge from-layer="43" from-port="0" to-layer="44" to-port="0" />
		<edge from-layer="44" from-port="1" to-layer="45" to-port="1" />
		<edge from-layer="45" from-port="2" to-layer="48" to-port="0" />
		<edge from-layer="46" from-port="0" to-layer="47" to-port="0" />
		<edge from-layer="47" from-port="1" to-layer="48" to-port="1" />
		<edge from-layer="48" from-port="2" to-layer="51" to-port="0" />
		<edge from-layer="48" from-port="2" to-layer="69" to-port="0" />
		<edge from-layer="49" from-port="0" to-layer="50" to-port="0" />
		<edge from-layer="50" from-port="1" to-layer="51" to-port="1" />
		<edge from-layer="51" from-port="2" to-layer="54" to-port="0" />
		<edge from-layer="52" from-port="0" to-layer="53" to-port="0" />
		<edge from-layer="53" from-port="1" to-layer="54" to-port="1" />
		<edge from-layer="54" from-port="2" to-layer="55" to-port="0" />
		<edge from-layer="55" from-port="1" to-layer="58" to-port="0" />
		<edge from-layer="56" from-port="0" to-layer="57" to-port="0" />
		<edge from-layer="57" from-port="1" to-layer="58" to-port="1" />
		<edge from-layer="58" from-port="2" to-layer="61" to-port="0" />
		<edge from-layer="59" from-port="0" to-layer="60" to-port="0" />
		<edge from-layer="60" from-port="1" to-layer="61" to-port="1" />
		<edge from-layer="61" from-port="2" to-layer="62" to-port="0" />
		<edge from-layer="62" from-port="1" to-layer="65" to-port="0" />
		<edge from-layer="63" from-port="0" to-layer="64" to-port="0" />
		<edge from-layer="64" from-port="1" to-layer="65" to-port="1" />
		<edge from-layer="65" from-port="2" to-layer="68" to-port="0" />
		<edge from-layer="66" from-port="0" to-layer="67" to-port="0" />
		<edge from-layer="67" from-port="1" to-layer="68" to-port="1" />
		<edge from-layer="68" from-port="2" to-layer="69" to-port="1" />
		<edge from-layer="69" from-port="2" to-layer="72" to-port="0" />
		<edge from-layer="69" from-port="2" to-layer="489" to-port="0" />
		<edge from-layer="70" from-port="0" to-layer="71" to-port="0" />
		<edge from-layer="71" from-port="1" to-layer="72" to-port="1" />
		<edge from-layer="72" from-port="2" to-layer="75" to-port="0" />
		<edge from-layer="73" from-port="0" to-layer="74" to-port="0" />
		<edge from-layer="74" from-port="1" to-layer="75" to-port="1" />
		<edge from-layer="75" from-port="2" to-layer="76" to-port="0" />
		<edge from-layer="76" from-port="1" to-layer="79" to-port="0" />
		<edge from-layer="77" from-port="0" to-layer="78" to-port="0" />
		<edge from-layer="78" from-port="1" to-layer="79" to-port="1" />
		<edge from-layer="79" from-port="2" to-layer="82" to-port="0" />
		<edge from-layer="80" from-port="0" to-layer="81" to-port="0" />
		<edge from-layer="81" from-port="1" to-layer="82" to-port="1" />
		<edge from-layer="82" from-port="2" to-layer="83" to-port="0" />
		<edge from-layer="83" from-port="1" to-layer="86" to-port="0" />
		<edge from-layer="84" from-port="0" to-layer="85" to-port="0" />
		<edge from-layer="85" from-port="1" to-layer="86" to-port="1" />
		<edge from-layer="86" from-port="2" to-layer="89" to-port="0" />
		<edge from-layer="87" from-port="0" to-layer="88" to-port="0" />
		<edge from-layer="88" from-port="1" to-layer="89" to-port="1" />
		<edge from-layer="89" from-port="2" to-layer="92" to-port="0" />
		<edge from-layer="89" from-port="2" to-layer="110" to-port="0" />
		<edge from-layer="90" from-port="0" to-layer="91" to-port="0" />
		<edge from-layer="91" from-port="1" to-layer="92" to-port="1" />
		<edge from-layer="92" from-port="2" to-layer="95" to-port="0" />
		<edge from-layer="93" from-port="0" to-layer="94" to-port="0" />
		<edge from-layer="94" from-port="1" to-layer="95" to-port="1" />
		<edge from-layer="95" from-port="2" to-layer="96" to-port="0" />
		<edge from-layer="96" from-port="1" to-layer="99" to-port="0" />
		<edge from-layer="97" from-port="0" to-layer="98" to-port="0" />
		<edge from-layer="98" from-port="1" to-layer="99" to-port="1" />
		<edge from-layer="99" from-port="2" to-layer="102" to-port="0" />
		<edge from-layer="100" from-port="0" to-layer="101" to-port="0" />
		<edge from-layer="101" from-port="1" to-layer="102" to-port="1" />
		<edge from-layer="102" from-port="2" to-layer="103" to-port="0" />
		<edge from-layer="103" from-port="1" to-layer="106" to-port="0" />
		<edge from-layer="104" from-port="0" to-layer="105" to-port="0" />
		<edge from-layer="105" from-port="1" to-layer="106" to-port="1" />
		<edge from-layer="106" from-port="2" to-layer="109" to-port="0" />
		<edge from-layer="107" from-port="0" to-layer="108" to-port="0" />
		<edge from-layer="108" from-port="1" to-layer="109" to-port="1" />
		<edge from-layer="109" from-port="2" to-layer="110" to-port="1" />
		<edge from-layer="110" from-port="2" to-layer="113" to-port="0" />
		<edge from-layer="110" from-port="2" to-layer="131" to-port="0" />
		<edge from-layer="111" from-port="0" to-layer="112" to-port="0" />
		<edge from-layer="112" from-port="1" to-layer="113" to-port="1" />
		<edge from-layer="113" from-port="2" to-layer="116" to-port="0" />
		<edge from-layer="114" from-port="0" to-layer="115" to-port="0" />
		<edge from-layer="115" from-port="1" to-layer="116" to-port="1" />
		<edge from-layer="116" from-port="2" to-layer="117" to-port="0" />
		<edge from-layer="117" from-port="1" to-layer="120" to-port="0" />
		<edge from-layer="118" from-port="0" to-layer="119" to-port="0" />
		<edge from-layer="119" from-port="1" to-layer="120" to-port="1" />
		<edge from-layer="120" from-port="2" to-layer="123" to-port="0" />
		<edge from-layer="121" from-port="0" to-layer="122" to-port="0" />
		<edge from-layer="122" from-port="1" to-layer="123" to-port="1" />
		<edge from-layer="123" from-port="2" to-layer="124" to-port="0" />
		<edge from-layer="124" from-port="1" to-layer="127" to-port="0" />
		<edge from-layer="125" from-port="0" to-layer="126" to-port="0" />
		<edge from-layer="126" from-port="1" to-layer="127" to-port="1" />
		<edge from-layer="127" from-port="2" to-layer="130" to-port="0" />
		<edge from-layer="128" from-port="0" to-layer="129" to-port="0" />
		<edge from-layer="129" from-port="1" to-layer="130" to-port="1" />
		<edge from-layer="130" from-port="2" to-layer="131" to-port="1" />
		<edge from-layer="131" from-port="2" to-layer="134" to-port="0" />
		<edge from-layer="131" from-port="2" to-layer="434" to-port="0" />
		<edge from-layer="132" from-port="0" to-layer="133" to-port="0" />
		<edge from-layer="133" from-port="1" to-layer="134" to-port="1" />
		<edge from-layer="134" from-port="2" to-layer="137" to-port="0" />
		<edge from-layer="135" from-port="0" to-layer="136" to-port="0" />
		<edge from-layer="136" from-port="1" to-layer="137" to-port="1" />
		<edge from-layer="137" from-port="2" to-layer="138" to-port="0" />
		<edge from-layer="138" from-port="1" to-layer="141" to-port="0" />
		<edge from-layer="139" from-port="0" to-layer="140" to-port="0" />
		<edge from-layer="140" from-port="1" to-layer="141" to-port="1" />
		<edge from-layer="141" from-port="2" to-layer="144" to-port="0" />
		<edge from-layer="142" from-port="0" to-layer="143" to-port="0" />
		<edge from-layer="143" from-port="1" to-layer="144" to-port="1" />
		<edge from-layer="144" from-port="2" to-layer="145" to-port="0" />
		<edge from-layer="145" from-port="1" to-layer="148" to-port="0" />
		<edge from-layer="146" from-port="0" to-layer="147" to-port="0" />
		<edge from-layer="147" from-port="1" to-layer="148" to-port="1" />
		<edge from-layer="148" from-port="2" to-layer="151" to-port="0" />
		<edge from-layer="149" from-port="0" to-layer="150" to-port="0" />
		<edge from-layer="150" from-port="1" to-layer="151" to-port="1" />
		<edge from-layer="151" from-port="2" to-layer="172" to-port="0" />
		<edge from-layer="151" from-port="2" to-layer="154" to-port="0" />
		<edge from-layer="152" from-port="0" to-layer="153" to-port="0" />
		<edge from-layer="153" from-port="1" to-layer="154" to-port="1" />
		<edge from-layer="154" from-port="2" to-layer="157" to-port="0" />
		<edge from-layer="155" from-port="0" to-layer="156" to-port="0" />
		<edge from-layer="156" from-port="1" to-layer="157" to-port="1" />
		<edge from-layer="157" from-port="2" to-layer="158" to-port="0" />
		<edge from-layer="158" from-port="1" to-layer="161" to-port="0" />
		<edge from-layer="159" from-port="0" to-layer="160" to-port="0" />
		<edge from-layer="160" from-port="1" to-layer="161" to-port="1" />
		<edge from-layer="161" from-port="2" to-layer="164" to-port="0" />
		<edge from-layer="162" from-port="0" to-layer="163" to-port="0" />
		<edge from-layer="163" from-port="1" to-layer="164" to-port="1" />
		<edge from-layer="164" from-port="2" to-layer="165" to-port="0" />
		<edge from-layer="165" from-port="1" to-layer="168" to-port="0" />
		<edge from-layer="166" from-port="0" to-layer="167" to-port="0" />
		<edge from-layer="167" from-port="1" to-layer="168" to-port="1" />
		<edge from-layer="168" from-port="2" to-layer="171" to-port="0" />
		<edge from-layer="169" from-port="0" to-layer="170" to-port="0" />
		<edge from-layer="170" from-port="1" to-layer="171" to-port="1" />
		<edge from-layer="171" from-port="2" to-layer="172" to-port="1" />
		<edge from-layer="172" from-port="2" to-layer="175" to-port="0" />
		<edge from-layer="172" from-port="2" to-layer="193" to-port="0" />
		<edge from-layer="173" from-port="0" to-layer="174" to-port="0" />
		<edge from-layer="174" from-port="1" to-layer="175" to-port="1" />
		<edge from-layer="175" from-port="2" to-layer="178" to-port="0" />
		<edge from-layer="176" from-port="0" to-layer="177" to-port="0" />
		<edge from-layer="177" from-port="1" to-layer="178" to-port="1" />
		<edge from-layer="178" from-port="2" to-layer="179" to-port="0" />
		<edge from-layer="179" from-port="1" to-layer="182" to-port="0" />
		<edge from-layer="180" from-port="0" to-layer="181" to-port="0" />
		<edge from-layer="181" from-port="1" to-layer="182" to-port="1" />
		<edge from-layer="182" from-port="2" to-layer="185" to-port="0" />
		<edge from-layer="183" from-port="0" to-layer="184" to-port="0" />
		<edge from-layer="184" from-port="1" to-layer="185" to-port="1" />
		<edge from-layer="185" from-port="2" to-layer="186" to-port="0" />
		<edge from-layer="186" from-port="1" to-layer="189" to-port="0" />
		<edge from-layer="187" from-port="0" to-layer="188" to-port="0" />
		<edge from-layer="188" from-port="1" to-layer="189" to-port="1" />
		<edge from-layer="189" from-port="2" to-layer="192" to-port="0" />
		<edge from-layer="190" from-port="0" to-layer="191" to-port="0" />
		<edge from-layer="191" from-port="1" to-layer="192" to-port="1" />
		<edge from-layer="192" from-port="2" to-layer="193" to-port="1" />
		<edge from-layer="193" from-port="2" to-layer="196" to-port="0" />
		<edge from-layer="193" from-port="2" to-layer="214" to-port="0" />
		<edge from-layer="194" from-port="0" to-layer="195" to-port="0" />
		<edge from-layer="195" from-port="1" to-layer="196" to-port="1" />
		<edge from-layer="196" from-port="2" to-layer="199" to-port="0" />
		<edge from-layer="197" from-port="0" to-layer="198" to-port="0" />
		<edge from-layer="198" from-port="1" to-layer="199" to-port="1" />
		<edge from-layer="199" from-port="2" to-layer="200" to-port="0" />
		<edge from-layer="200" from-port="1" to-layer="203" to-port="0" />
		<edge from-layer="201" from-port="0" to-layer="202" to-port="0" />
		<edge from-layer="202" from-port="1" to-layer="203" to-port="1" />
		<edge from-layer="203" from-port="2" to-layer="206" to-port="0" />
		<edge from-layer="204" from-port="0" to-layer="205" to-port="0" />
		<edge from-layer="205" from-port="1" to-layer="206" to-port="1" />
		<edge from-layer="206" from-port="2" to-layer="207" to-port="0" />
		<edge from-layer="207" from-port="1" to-layer="210" to-port="0" />
		<edge from-layer="208" from-port="0" to-layer="209" to-port="0" />
		<edge from-layer="209" from-port="1" to-layer="210" to-port="1" />
		<edge from-layer="210" from-port="2" to-layer="213" to-port="0" />
		<edge from-layer="211" from-port="0" to-layer="212" to-port="0" />
		<edge from-layer="212" from-port="1" to-layer="213" to-port="1" />
		<edge from-layer="213" from-port="2" to-layer="214" to-port="1" />
		<edge from-layer="214" from-port="2" to-layer="217" to-port="0" />
		<edge from-layer="215" from-port="0" to-layer="216" to-port="0" />
		<edge from-layer="216" from-port="1" to-layer="217" to-port="1" />
		<edge from-layer="217" from-port="2" to-layer="220" to-port="0" />
		<edge from-layer="218" from-port="0" to-layer="219" to-port="0" />
		<edge from-layer="219" from-port="1" to-layer="220" to-port="1" />
		<edge from-layer="220" from-port="2" to-layer="221" to-port="0" />
		<edge from-layer="221" from-port="1" to-layer="224" to-port="0" />
		<edge from-layer="222" from-port="0" to-layer="223" to-port="0" />
		<edge from-layer="223" from-port="1" to-layer="224" to-port="1" />
		<edge from-layer="224" from-port="2" to-layer="227" to-port="0" />
		<edge from-layer="225" from-port="0" to-layer="226" to-port="0" />
		<edge from-layer="226" from-port="1" to-layer="227" to-port="1" />
		<edge from-layer="227" from-port="2" to-layer="228" to-port="0" />
		<edge from-layer="228" from-port="1" to-layer="231" to-port="0" />
		<edge from-layer="229" from-port="0" to-layer="230" to-port="0" />
		<edge from-layer="230" from-port="1" to-layer="231" to-port="1" />
		<edge from-layer="231" from-port="2" to-layer="234" to-port="0" />
		<edge from-layer="232" from-port="0" to-layer="233" to-port="0" />
		<edge from-layer="233" from-port="1" to-layer="234" to-port="1" />
		<edge from-layer="234" from-port="2" to-layer="237" to-port="0" />
		<edge from-layer="234" from-port="2" to-layer="255" to-port="0" />
		<edge from-layer="235" from-port="0" to-layer="236" to-port="0" />
		<edge from-layer="236" from-port="1" to-layer="237" to-port="1" />
		<edge from-layer="237" from-port="2" to-layer="240" to-port="0" />
		<edge from-layer="238" from-port="0" to-layer="239" to-port="0" />
		<edge from-layer="239" from-port="1" to-layer="240" to-port="1" />
		<edge from-layer="240" from-port="2" to-layer="241" to-port="0" />
		<edge from-layer="241" from-port="1" to-layer="244" to-port="0" />
		<edge from-layer="242" from-port="0" to-layer="243" to-port="0" />
		<edge from-layer="243" from-port="1" to-layer="244" to-port="1" />
		<edge from-layer="244" from-port="2" to-layer="247" to-port="0" />
		<edge from-layer="245" from-port="0" to-layer="246" to-port="0" />
		<edge from-layer="246" from-port="1" to-layer="247" to-port="1" />
		<edge from-layer="247" from-port="2" to-layer="248" to-port="0" />
		<edge from-layer="248" from-port="1" to-layer="251" to-port="0" />
		<edge from-layer="249" from-port="0" to-layer="250" to-port="0" />
		<edge from-layer="250" from-port="1" to-layer="251" to-port="1" />
		<edge from-layer="251" from-port="2" to-layer="254" to-port="0" />
		<edge from-layer="252" from-port="0" to-layer="253" to-port="0" />
		<edge from-layer="253" from-port="1" to-layer="254" to-port="1" />
		<edge from-layer="254" from-port="2" to-layer="255" to-port="1" />
		<edge from-layer="255" from-port="2" to-layer="258" to-port="0" />
		<edge from-layer="255" from-port="2" to-layer="379" to-port="0" />
		<edge from-layer="256" from-port="0" to-layer="257" to-port="0" />
		<edge from-layer="257" from-port="1" to-layer="258" to-port="1" />
		<edge from-layer="258" from-port="2" to-layer="261" to-port="0" />
		<edge from-layer="259" from-port="0" to-layer="260" to-port="0" />
		<edge from-layer="260" from-port="1" to-layer="261" to-port="1" />
		<edge from-layer="261" from-port="2" to-layer="262" to-port="0" />
		<edge from-layer="262" from-port="1" to-layer="265" to-port="0" />
		<edge from-layer="263" from-port="0" to-layer="264" to-port="0" />
		<edge from-layer="264" from-port="1" to-layer="265" to-port="1" />
		<edge from-layer="265" from-port="2" to-layer="268" to-port="0" />
		<edge from-layer="266" from-port="0" to-layer="267" to-port="0" />
		<edge from-layer="267" from-port="1" to-layer="268" to-port="1" />
		<edge from-layer="268" from-port="2" to-layer="269" to-port="0" />
		<edge from-layer="269" from-port="1" to-layer="272" to-port="0" />
		<edge from-layer="270" from-port="0" to-layer="271" to-port="0" />
		<edge from-layer="271" from-port="1" to-layer="272" to-port="1" />
		<edge from-layer="272" from-port="2" to-layer="275" to-port="0" />
		<edge from-layer="273" from-port="0" to-layer="274" to-port="0" />
		<edge from-layer="274" from-port="1" to-layer="275" to-port="1" />
		<edge from-layer="275" from-port="2" to-layer="278" to-port="0" />
		<edge from-layer="275" from-port="2" to-layer="296" to-port="0" />
		<edge from-layer="276" from-port="0" to-layer="277" to-port="0" />
		<edge from-layer="277" from-port="1" to-layer="278" to-port="1" />
		<edge from-layer="278" from-port="2" to-layer="281" to-port="0" />
		<edge from-layer="279" from-port="0" to-layer="280" to-port="0" />
		<edge from-layer="280" from-port="1" to-layer="281" to-port="1" />
		<edge from-layer="281" from-port="2" to-layer="282" to-port="0" />
		<edge from-layer="282" from-port="1" to-layer="285" to-port="0" />
		<edge from-layer="283" from-port="0" to-layer="284" to-port="0" />
		<edge from-layer="284" from-port="1" to-layer="285" to-port="1" />
		<edge from-layer="285" from-port="2" to-layer="288" to-port="0" />
		<edge from-layer="286" from-port="0" to-layer="287" to-port="0" />
		<edge from-layer="287" from-port="1" to-layer="288" to-port="1" />
		<edge from-layer="288" from-port="2" to-layer="289" to-port="0" />
		<edge from-layer="289" from-port="1" to-layer="292" to-port="0" />
		<edge from-layer="290" from-port="0" to-layer="291" to-port="0" />
		<edge from-layer="291" from-port="1" to-layer="292" to-port="1" />
		<edge from-layer="292" from-port="2" to-layer="295" to-port="0" />
		<edge from-layer="293" from-port="0" to-layer="294" to-port="0" />
		<edge from-layer="294" from-port="1" to-layer="295" to-port="1" />
		<edge from-layer="295" from-port="2" to-layer="296" to-port="1" />
		<edge from-layer="296" from-port="2" to-layer="299" to-port="0" />
		<edge from-layer="296" from-port="2" to-layer="317" to-port="0" />
		<edge from-layer="297" from-port="0" to-layer="298" to-port="0" />
		<edge from-layer="298" from-port="1" to-layer="299" to-port="1" />
		<edge from-layer="299" from-port="2" to-layer="302" to-port="0" />
		<edge from-layer="300" from-port="0" to-layer="301" to-port="0" />
		<edge from-layer="301" from-port="1" to-layer="302" to-port="1" />
		<edge from-layer="302" from-port="2" to-layer="303" to-port="0" />
		<edge from-layer="303" from-port="1" to-layer="306" to-port="0" />
		<edge from-layer="304" from-port="0" to-layer="305" to-port="0" />
		<edge from-layer="305" from-port="1" to-layer="306" to-port="1" />
		<edge from-layer="306" from-port="2" to-layer="309" to-port="0" />
		<edge from-layer="307" from-port="0" to-layer="308" to-port="0" />
		<edge from-layer="308" from-port="1" to-layer="309" to-port="1" />
		<edge from-layer="309" from-port="2" to-layer="310" to-port="0" />
		<edge from-layer="310" from-port="1" to-layer="313" to-port="0" />
		<edge from-layer="311" from-port="0" to-layer="312" to-port="0" />
		<edge from-layer="312" from-port="1" to-layer="313" to-port="1" />
		<edge from-layer="313" from-port="2" to-layer="316" to-port="0" />
		<edge from-layer="314" from-port="0" to-layer="315" to-port="0" />
		<edge from-layer="315" from-port="1" to-layer="316" to-port="1" />
		<edge from-layer="316" from-port="2" to-layer="317" to-port="1" />
		<edge from-layer="317" from-port="2" to-layer="320" to-port="0" />
		<edge from-layer="318" from-port="0" to-layer="319" to-port="0" />
		<edge from-layer="319" from-port="1" to-layer="320" to-port="1" />
		<edge from-layer="320" from-port="2" to-layer="323" to-port="0" />
		<edge from-layer="321" from-port="0" to-layer="322" to-port="0" />
		<edge from-layer="322" from-port="1" to-layer="323" to-port="1" />
		<edge from-layer="323" from-port="2" to-layer="324" to-port="0" />
		<edge from-layer="324" from-port="1" to-layer="327" to-port="0" />
		<edge from-layer="325" from-port="0" to-layer="326" to-port="0" />
		<edge from-layer="326" from-port="1" to-layer="327" to-port="1" />
		<edge from-layer="327" from-port="2" to-layer="329" to-port="0" />
		<edge from-layer="327" from-port="2" to-layer="348" to-port="0" />
		<edge from-layer="327" from-port="2" to-layer="349" to-port="0" />
		<edge from-layer="328" from-port="0" to-layer="329" to-port="1" />
		<edge from-layer="329" from-port="2" to-layer="332" to-port="0" />
		<edge from-layer="330" from-port="0" to-layer="331" to-port="0" />
		<edge from-layer="331" from-port="1" to-layer="332" to-port="1" />
		<edge from-layer="332" from-port="2" to-layer="335" to-port="0" />
		<edge from-layer="333" from-port="0" to-layer="334" to-port="0" />
		<edge from-layer="334" from-port="1" to-layer="335" to-port="1" />
		<edge from-layer="335" from-port="2" to-layer="336" to-port="0" />
		<edge from-layer="336" from-port="1" to-layer="339" to-port="0" />
		<edge from-layer="337" from-port="0" to-layer="338" to-port="0" />
		<edge from-layer="338" from-port="1" to-layer="339" to-port="1" />
		<edge from-layer="339" from-port="2" to-layer="342" to-port="0" />
		<edge from-layer="340" from-port="0" to-layer="341" to-port="0" />
		<edge from-layer="341" from-port="1" to-layer="342" to-port="1" />
		<edge from-layer="342" from-port="2" to-layer="347" to-port="0" />
		<edge from-layer="343" from-port="0" to-layer="344" to-port="0" />
		<edge from-layer="344" from-port="1" to-layer="347" to-port="1" />
		<edge from-layer="345" from-port="0" to-layer="346" to-port="0" />
		<edge from-layer="346" from-port="1" to-layer="347" to-port="2" />
		<edge from-layer="347" from-port="3" to-layer="348" to-port="1" />
		<edge from-layer="348" from-port="2" to-layer="349" to-port="1" />
		<edge from-layer="349" from-port="2" to-layer="352" to-port="0" />
		<edge from-layer="349" from-port="2" to-layer="403" to-port="0" />
		<edge from-layer="350" from-port="0" to-layer="351" to-port="0" />
		<edge from-layer="351" from-port="1" to-layer="352" to-port="1" />
		<edge from-layer="352" from-port="2" to-layer="354" to-port="0" />
		<edge from-layer="352" from-port="2" to-layer="373" to-port="0" />
		<edge from-layer="352" from-port="2" to-layer="374" to-port="0" />
		<edge from-layer="353" from-port="0" to-layer="354" to-port="1" />
		<edge from-layer="354" from-port="2" to-layer="357" to-port="0" />
		<edge from-layer="355" from-port="0" to-layer="356" to-port="0" />
		<edge from-layer="356" from-port="1" to-layer="357" to-port="1" />
		<edge from-layer="357" from-port="2" to-layer="360" to-port="0" />
		<edge from-layer="358" from-port="0" to-layer="359" to-port="0" />
		<edge from-layer="359" from-port="1" to-layer="360" to-port="1" />
		<edge from-layer="360" from-port="2" to-layer="361" to-port="0" />
		<edge from-layer="361" from-port="1" to-layer="364" to-port="0" />
		<edge from-layer="362" from-port="0" to-layer="363" to-port="0" />
		<edge from-layer="363" from-port="1" to-layer="364" to-port="1" />
		<edge from-layer="364" from-port="2" to-layer="367" to-port="0" />
		<edge from-layer="365" from-port="0" to-layer="366" to-port="0" />
		<edge from-layer="366" from-port="1" to-layer="367" to-port="1" />
		<edge from-layer="367" from-port="2" to-layer="372" to-port="0" />
		<edge from-layer="368" from-port="0" to-layer="369" to-port="0" />
		<edge from-layer="369" from-port="1" to-layer="372" to-port="1" />
		<edge from-layer="370" from-port="0" to-layer="371" to-port="0" />
		<edge from-layer="371" from-port="1" to-layer="372" to-port="2" />
		<edge from-layer="372" from-port="3" to-layer="373" to-port="1" />
		<edge from-layer="373" from-port="2" to-layer="374" to-port="1" />
		<edge from-layer="374" from-port="2" to-layer="376" to-port="0" />
		<edge from-layer="375" from-port="0" to-layer="376" to-port="1" />
		<edge from-layer="376" from-port="2" to-layer="540" to-port="0" />
		<edge from-layer="377" from-port="0" to-layer="378" to-port="0" />
		<edge from-layer="378" from-port="1" to-layer="379" to-port="1" />
		<edge from-layer="379" from-port="2" to-layer="381" to-port="0" />
		<edge from-layer="379" from-port="2" to-layer="401" to-port="0" />
		<edge from-layer="379" from-port="2" to-layer="400" to-port="0" />
		<edge from-layer="380" from-port="0" to-layer="381" to-port="1" />
		<edge from-layer="381" from-port="2" to-layer="384" to-port="0" />
		<edge from-layer="382" from-port="0" to-layer="383" to-port="0" />
		<edge from-layer="383" from-port="1" to-layer="384" to-port="1" />
		<edge from-layer="384" from-port="2" to-layer="387" to-port="0" />
		<edge from-layer="385" from-port="0" to-layer="386" to-port="0" />
		<edge from-layer="386" from-port="1" to-layer="387" to-port="1" />
		<edge from-layer="387" from-port="2" to-layer="388" to-port="0" />
		<edge from-layer="388" from-port="1" to-layer="391" to-port="0" />
		<edge from-layer="389" from-port="0" to-layer="390" to-port="0" />
		<edge from-layer="390" from-port="1" to-layer="391" to-port="1" />
		<edge from-layer="391" from-port="2" to-layer="394" to-port="0" />
		<edge from-layer="392" from-port="0" to-layer="393" to-port="0" />
		<edge from-layer="393" from-port="1" to-layer="394" to-port="1" />
		<edge from-layer="394" from-port="2" to-layer="399" to-port="0" />
		<edge from-layer="395" from-port="0" to-layer="396" to-port="0" />
		<edge from-layer="396" from-port="1" to-layer="399" to-port="1" />
		<edge from-layer="397" from-port="0" to-layer="398" to-port="0" />
		<edge from-layer="398" from-port="1" to-layer="399" to-port="2" />
		<edge from-layer="399" from-port="3" to-layer="400" to-port="1" />
		<edge from-layer="400" from-port="2" to-layer="401" to-port="1" />
		<edge from-layer="401" from-port="2" to-layer="404" to-port="0" />
		<edge from-layer="402" from-port="0" to-layer="403" to-port="1" />
		<edge from-layer="403" from-port="2" to-layer="404" to-port="1" />
		<edge from-layer="404" from-port="2" to-layer="407" to-port="0" />
		<edge from-layer="404" from-port="2" to-layer="458" to-port="0" />
		<edge from-layer="405" from-port="0" to-layer="406" to-port="0" />
		<edge from-layer="406" from-port="1" to-layer="407" to-port="1" />
		<edge from-layer="407" from-port="2" to-layer="409" to-port="0" />
		<edge from-layer="407" from-port="2" to-layer="428" to-port="0" />
		<edge from-layer="407" from-port="2" to-layer="429" to-port="0" />
		<edge from-layer="408" from-port="0" to-layer="409" to-port="1" />
		<edge from-layer="409" from-port="2" to-layer="412" to-port="0" />
		<edge from-layer="410" from-port="0" to-layer="411" to-port="0" />
		<edge from-layer="411" from-port="1" to-layer="412" to-port="1" />
		<edge from-layer="412" from-port="2" to-layer="415" to-port="0" />
		<edge from-layer="413" from-port="0" to-layer="414" to-port="0" />
		<edge from-layer="414" from-port="1" to-layer="415" to-port="1" />
		<edge from-layer="415" from-port="2" to-layer="416" to-port="0" />
		<edge from-layer="416" from-port="1" to-layer="419" to-port="0" />
		<edge from-layer="417" from-port="0" to-layer="418" to-port="0" />
		<edge from-layer="418" from-port="1" to-layer="419" to-port="1" />
		<edge from-layer="419" from-port="2" to-layer="422" to-port="0" />
		<edge from-layer="420" from-port="0" to-layer="421" to-port="0" />
		<edge from-layer="421" from-port="1" to-layer="422" to-port="1" />
		<edge from-layer="422" from-port="2" to-layer="427" to-port="0" />
		<edge from-layer="423" from-port="0" to-layer="424" to-port="0" />
		<edge from-layer="424" from-port="1" to-layer="427" to-port="1" />
		<edge from-layer="425" from-port="0" to-layer="426" to-port="0" />
		<edge from-layer="426" from-port="1" to-layer="427" to-port="2" />
		<edge from-layer="427" from-port="3" to-layer="428" to-port="1" />
		<edge from-layer="428" from-port="2" to-layer="429" to-port="1" />
		<edge from-layer="429" from-port="2" to-layer="431" to-port="0" />
		<edge from-layer="430" from-port="0" to-layer="431" to-port="1" />
		<edge from-layer="431" from-port="2" to-layer="540" to-port="1" />
		<edge from-layer="432" from-port="0" to-layer="433" to-port="0" />
		<edge from-layer="433" from-port="1" to-layer="434" to-port="1" />
		<edge from-layer="434" from-port="2" to-layer="436" to-port="0" />
		<edge from-layer="434" from-port="2" to-layer="455" to-port="0" />
		<edge from-layer="434" from-port="2" to-layer="456" to-port="0" />
		<edge from-layer="435" from-port="0" to-layer="436" to-port="1" />
		<edge from-layer="436" from-port="2" to-layer="439" to-port="0" />
		<edge from-layer="437" from-port="0" to-layer="438" to-port="0" />
		<edge from-layer="438" from-port="1" to-layer="439" to-port="1" />
		<edge from-layer="439" from-port="2" to-layer="442" to-port="0" />
		<edge from-layer="440" from-port="0" to-layer="441" to-port="0" />
		<edge from-layer="441" from-port="1" to-layer="442" to-port="1" />
		<edge from-layer="442" from-port="2" to-layer="443" to-port="0" />
		<edge from-layer="443" from-port="1" to-layer="446" to-port="0" />
		<edge from-layer="444" from-port="0" to-layer="445" to-port="0" />
		<edge from-layer="445" from-port="1" to-layer="446" to-port="1" />
		<edge from-layer="446" from-port="2" to-layer="449" to-port="0" />
		<edge from-layer="447" from-port="0" to-layer="448" to-port="0" />
		<edge from-layer="448" from-port="1" to-layer="449" to-port="1" />
		<edge from-layer="449" from-port="2" to-layer="454" to-port="0" />
		<edge from-layer="450" from-port="0" to-layer="451" to-port="0" />
		<edge from-layer="451" from-port="1" to-layer="454" to-port="1" />
		<edge from-layer="452" from-port="0" to-layer="453" to-port="0" />
		<edge from-layer="453" from-port="1" to-layer="454" to-port="2" />
		<edge from-layer="454" from-port="3" to-layer="455" to-port="1" />
		<edge from-layer="455" from-port="2" to-layer="456" to-port="1" />
		<edge from-layer="456" from-port="2" to-layer="459" to-port="0" />
		<edge from-layer="457" from-port="0" to-layer="458" to-port="1" />
		<edge from-layer="458" from-port="2" to-layer="459" to-port="1" />
		<edge from-layer="459" from-port="2" to-layer="462" to-port="0" />
		<edge from-layer="459" from-port="2" to-layer="513" to-port="0" />
		<edge from-layer="460" from-port="0" to-layer="461" to-port="0" />
		<edge from-layer="461" from-port="1" to-layer="462" to-port="1" />
		<edge from-layer="462" from-port="2" to-layer="464" to-port="0" />
		<edge from-layer="462" from-port="2" to-layer="484" to-port="0" />
		<edge from-layer="462" from-port="2" to-layer="483" to-port="0" />
		<edge from-layer="463" from-port="0" to-layer="464" to-port="1" />
		<edge from-layer="464" from-port="2" to-layer="467" to-port="0" />
		<edge from-layer="465" from-port="0" to-layer="466" to-port="0" />
		<edge from-layer="466" from-port="1" to-layer="467" to-port="1" />
		<edge from-layer="467" from-port="2" to-layer="470" to-port="0" />
		<edge from-layer="468" from-port="0" to-layer="469" to-port="0" />
		<edge from-layer="469" from-port="1" to-layer="470" to-port="1" />
		<edge from-layer="470" from-port="2" to-layer="471" to-port="0" />
		<edge from-layer="471" from-port="1" to-layer="474" to-port="0" />
		<edge from-layer="472" from-port="0" to-layer="473" to-port="0" />
		<edge from-layer="473" from-port="1" to-layer="474" to-port="1" />
		<edge from-layer="474" from-port="2" to-layer="477" to-port="0" />
		<edge from-layer="475" from-port="0" to-layer="476" to-port="0" />
		<edge from-layer="476" from-port="1" to-layer="477" to-port="1" />
		<edge from-layer="477" from-port="2" to-layer="482" to-port="0" />
		<edge from-layer="478" from-port="0" to-layer="479" to-port="0" />
		<edge from-layer="479" from-port="1" to-layer="482" to-port="1" />
		<edge from-layer="480" from-port="0" to-layer="481" to-port="0" />
		<edge from-layer="481" from-port="1" to-layer="482" to-port="2" />
		<edge from-layer="482" from-port="3" to-layer="483" to-port="1" />
		<edge from-layer="483" from-port="2" to-layer="484" to-port="1" />
		<edge from-layer="484" from-port="2" to-layer="486" to-port="0" />
		<edge from-layer="485" from-port="0" to-layer="486" to-port="1" />
		<edge from-layer="486" from-port="2" to-layer="540" to-port="2" />
		<edge from-layer="487" from-port="0" to-layer="488" to-port="0" />
		<edge from-layer="488" from-port="1" to-layer="489" to-port="1" />
		<edge from-layer="489" from-port="2" to-layer="491" to-port="0" />
		<edge from-layer="489" from-port="2" to-layer="510" to-port="0" />
		<edge from-layer="489" from-port="2" to-layer="511" to-port="0" />
		<edge from-layer="490" from-port="0" to-layer="491" to-port="1" />
		<edge from-layer="491" from-port="2" to-layer="494" to-port="0" />
		<edge from-layer="492" from-port="0" to-layer="493" to-port="0" />
		<edge from-layer="493" from-port="1" to-layer="494" to-port="1" />
		<edge from-layer="494" from-port="2" to-layer="497" to-port="0" />
		<edge from-layer="495" from-port="0" to-layer="496" to-port="0" />
		<edge from-layer="496" from-port="1" to-layer="497" to-port="1" />
		<edge from-layer="497" from-port="2" to-layer="498" to-port="0" />
		<edge from-layer="498" from-port="1" to-layer="501" to-port="0" />
		<edge from-layer="499" from-port="0" to-layer="500" to-port="0" />
		<edge from-layer="500" from-port="1" to-layer="501" to-port="1" />
		<edge from-layer="501" from-port="2" to-layer="504" to-port="0" />
		<edge from-layer="502" from-port="0" to-layer="503" to-port="0" />
		<edge from-layer="503" from-port="1" to-layer="504" to-port="1" />
		<edge from-layer="504" from-port="2" to-layer="509" to-port="0" />
		<edge from-layer="505" from-port="0" to-layer="506" to-port="0" />
		<edge from-layer="506" from-port="1" to-layer="509" to-port="1" />
		<edge from-layer="507" from-port="0" to-layer="508" to-port="0" />
		<edge from-layer="508" from-port="1" to-layer="509" to-port="2" />
		<edge from-layer="509" from-port="3" to-layer="510" to-port="1" />
		<edge from-layer="510" from-port="2" to-layer="511" to-port="1" />
		<edge from-layer="511" from-port="2" to-layer="514" to-port="0" />
		<edge from-layer="512" from-port="0" to-layer="513" to-port="1" />
		<edge from-layer="513" from-port="2" to-layer="514" to-port="1" />
		<edge from-layer="514" from-port="2" to-layer="517" to-port="0" />
		<edge from-layer="515" from-port="0" to-layer="516" to-port="0" />
		<edge from-layer="516" from-port="1" to-layer="517" to-port="1" />
		<edge from-layer="517" from-port="2" to-layer="519" to-port="0" />
		<edge from-layer="517" from-port="2" to-layer="539" to-port="0" />
		<edge from-layer="517" from-port="2" to-layer="538" to-port="0" />
		<edge from-layer="518" from-port="0" to-layer="519" to-port="1" />
		<edge from-layer="519" from-port="2" to-layer="522" to-port="0" />
		<edge from-layer="520" from-port="0" to-layer="521" to-port="0" />
		<edge from-layer="521" from-port="1" to-layer="522" to-port="1" />
		<edge from-layer="522" from-port="2" to-layer="525" to-port="0" />
		<edge from-layer="523" from-port="0" to-layer="524" to-port="0" />
		<edge from-layer="524" from-port="1" to-layer="525" to-port="1" />
		<edge from-layer="525" from-port="2" to-layer="526" to-port="0" />
		<edge from-layer="526" from-port="1" to-layer="529" to-port="0" />
		<edge from-layer="527" from-port="0" to-layer="528" to-port="0" />
		<edge from-layer="528" from-port="1" to-layer="529" to-port="1" />
		<edge from-layer="529" from-port="2" to-layer="532" to-port="0" />
		<edge from-layer="530" from-port="0" to-layer="531" to-port="0" />
		<edge from-layer="531" from-port="1" to-layer="532" to-port="1" />
		<edge from-layer="532" from-port="2" to-layer="537" to-port="0" />
		<edge from-layer="533" from-port="0" to-layer="534" to-port="0" />
		<edge from-layer="534" from-port="1" to-layer="537" to-port="1" />
		<edge from-layer="535" from-port="0" to-layer="536" to-port="0" />
		<edge from-layer="536" from-port="1" to-layer="537" to-port="2" />
		<edge from-layer="537" from-port="3" to-layer="538" to-port="1" />
		<edge from-layer="538" from-port="2" to-layer="539" to-port="1" />
		<edge from-layer="539" from-port="2" to-layer="540" to-port="3" />
		<edge from-layer="540" from-port="4" to-layer="543" to-port="0" />
		<edge from-layer="541" from-port="0" to-layer="542" to-port="0" />
		<edge from-layer="542" from-port="1" to-layer="543" to-port="1" />
		<edge from-layer="543" from-port="2" to-layer="546" to-port="0" />
		<edge from-layer="544" from-port="0" to-layer="545" to-port="0" />
		<edge from-layer="545" from-port="1" to-layer="546" to-port="1" />
		<edge from-layer="546" from-port="2" to-layer="547" to-port="0" />
		<edge from-layer="547" from-port="1" to-layer="550" to-port="0" />
		<edge from-layer="548" from-port="0" to-layer="549" to-port="0" />
		<edge from-layer="549" from-port="1" to-layer="550" to-port="1" />
		<edge from-layer="550" from-port="2" to-layer="553" to-port="0" />
		<edge from-layer="551" from-port="0" to-layer="552" to-port="0" />
		<edge from-layer="552" from-port="1" to-layer="553" to-port="1" />
		<edge from-layer="553" from-port="2" to-layer="554" to-port="0" />
		<edge from-layer="554" from-port="1" to-layer="557" to-port="0" />
		<edge from-layer="555" from-port="0" to-layer="556" to-port="0" />
		<edge from-layer="556" from-port="1" to-layer="557" to-port="1" />
		<edge from-layer="557" from-port="2" to-layer="560" to-port="0" />
		<edge from-layer="558" from-port="0" to-layer="559" to-port="0" />
		<edge from-layer="559" from-port="1" to-layer="560" to-port="1" />
		<edge from-layer="560" from-port="2" to-layer="561" to-port="0" />
		<edge from-layer="561" from-port="1" to-layer="562" to-port="0" />
	</edges>
	<rt_info>
		<Runtime_version value="2024.6.0-17404-4c0f47d2335-releases/2024/6" />
		<conversion_parameters>
			<is_python_object value="False" />
			<output_model value="D:\proyectos\Paddle OCR\models\v5_ov\detection_v3\det" />
		</conversion_parameters>
	</rt_info>
</net>
